checkpoints/epoch=0-step=5-v1.ckpt (torch, 769949 bytes, 81 tensors)

seq_conv.weight f4 [64, 4, 15]
000000 c6 70 78 3d 62 05 b5 3d c8 85 8b 3d 66 96 ea 3d
       0.060654424 0.08838917 0.06812626 0.114544675
000010 7d a2 c3 bc 04 da fd bd 70 65 49 3d 8d ec ca 3d
       -0.023881191 -0.12395099 0.049169004 0.099084
000020 4e 17 9d bd f7 35 8e 3d d9 81 11 bd 62 fc 08 bd
       -0.07670461 0.06943887 -0.035524223 -0.033443816
000030 54 41 ba bd fd 80 e6 bd 63 e8 5a bd 8a 32 68 3c
       -0.090944916 -0.11255071 -0.053444277 0.014172206
000040 83 da 73 bb 49 2f 21 bb 9c 10 86 bd e6 c2 d5 3d
       -0.00372091 -0.0024594835 -0.06546137 0.104375646
000050 70 b6 80 3b 86 f4 da bb 33 89 2f 3d 26 ee 02 be
       0.0039279982 -0.0066819815 0.042855453 -0.12786159
000060 ef bc 02 be 5e e0 a0 bd 10 45 c6 3d 56 00 15 bb
       -0.12767385 -0.07855295 0.096811414 -0.0022735796
000070 53 2b 68 3d 6c 9b 9d 3d f1 8a 26 3d 75 77 95 3d
       0.056681942 0.0769566 0.04065985 0.07298175
000080 9a 98 79 3d 95 00 fd bd 66 a0 8c 3d 98 ba c4 3d
       0.060936548 -0.12353627 0.06866531 0.096059024
000090 42 39 84 bd 84 47 c3 3c aa 02 18 3d 62 b0 59 3d
       -0.064562336 0.023837812 0.037111916 0.053146727
0000a0 8b 61 b0 bd 36 9a bb bc 32 fc 47 3d 01 62 2f bd
       -0.08612355 -0.022900682 0.048824497 -0.042818073
0000b0 e1 25 d8 3d ee c8 22 bb c6 59 fc 3d 56 9b 71 bd
       0.105541 -0.0024839002 0.123218104 -0.05898603
0000c0 3d 91 df 3d 98 da e1 bd 30 e2 a4 bd eb 02 da 3d
       0.10916374 -0.110280216 -0.08050954 0.10645088
0000d0 74 e6 81 3d eb e6 a1 bd 13 15 94 bd 82 6d 1e bd
       0.063427836 -0.07905372 -0.07230582 -0.038678654
0000e0 25 8b 93 bd 26 27 2e 3d 64 cb 01 bd 30 9d 97 bd
       -0.07204274 0.042517804 -0.03168811 -0.07403028
0000f0 1d 26 2f bd 62 4a 9c 3d 43 bf fd bd 56 20 3a 3d
       -0.042760957 0.07631375 -0.12389996 0.045440994
000100 fe 3c a3 3d 1a 7c 2a 3c b7 00 b5 bd 7b 2d a5 bd
       0.07970618 0.010405565 -0.08838027 -0.08065315
000110 ee 71 61 3d aa b0 98 3d ee d9 5b bc 2f 6f a5 bc
       0.055040292 0.07455571 -0.013418658 -0.020194618
000120 56 71 a0 3d 18 f8 c2 3d b1 25 3d 3d d3 7b d3 3d
       0.07834117 0.095199764 0.046178523 0.10326352
000130 72 75 45 bd 08 e2 a3 3d ed 82 eb bd 92 3e 97 ba
       -0.048207708 0.080020964 -0.114995815 -0.0011539033
000140 16 a2 8f 3d ea de ac 3d 21 e9 9c bd 16 d4 a4 bd
       0.07013337 0.08440955 -0.07661653 -0.08048265
000150 75 17 91 3d 2d 7a 8e 3d b1 da 70 bd 35 b3 81 3d
       0.07084552 0.06956897 -0.05880231 0.06333009
000160 02 22 df bc f5 4f a1 3d 7e b6 c7 3d bc 27 bb bd
       -0.027237896 0.07876579 0.097516045 -0.09138438
000170 d0 19 63 3d 6a ce c3 3d 3d 8d 36 bd bb 0c 79 3d
       0.05544454 0.09560855 -0.04456829 0.060803156
000180 0d 93 6d bd d5 fc 91 3d 13 26 b9 3d 24 d6 17 bd
       -0.058001567 0.07128302 0.09040465 -0.037069455
000190 d3 d8 a7 3d 43 57 af bd a4 49 20 bd 44 9a f2 3d
       0.08195653 -0.08561566 -0.03913273 0.1184583
0001a0 b3 81 b0 3d 25 7b b5 3d c0 85 fe bd 80 03 99 bd
       0.08618488 0.088613786 -0.124278545 -0.07471371
0001b0 31 4d ff 3c c1 ac d9 3d 4b 73 21 bd f8 3c f1 bd
       0.031164737 0.10628653 -0.039416593 -0.11779207
0001c0 11 5a 58 bd 0b 6c 66 bd 4e 82 76 bd 8f 8b 4b bd
       -0.05282027 -0.05625538 -0.060182862 -0.04969364
0001d0 30 f7 e6 3c 0a 10 6d bd 35 24 62 3d 5c 2a 93 bc
       0.02819404 -0.057876624 0.05521031 -0.017964534
0001e0 31 fb 3a bd 7e 8a 30 bc 61 b0 1a 3c ad 3e 9b bb
       -0.04564971 -0.010775207 0.009441466 -0.004737696
0001f0 70 20 b4 bd 56 11 e7 3c 63 97 a3 3d 27 6d fd bc
       -0.087952495 0.028206509 0.07987859 -0.030935837
000200 1b 57 fb 3d e7 6a d0 3d 57 68 de bd 41 c1 9e bd
       0.122724734 0.1017664 -0.10859745 -0.07751704
000210 e6 f6 f3 3d cc f3 aa 3c b2 9e f2 bd 9a c2 6e 3d
       0.119123265 0.020868205 -0.11846675 0.058291055
000220 bd 8e 05 3d b9 89 c5 bd d4 1e 1f bc 03 c4 af 3d
       0.03260683 -0.09645409 -0.00971194 0.08582308
000230 0b 18 8f 3d e6 5f c0 bb 2d 31 77 3d 52 5b 27 bc
       0.06987008 -0.005870807 0.060349632 -0.010214644
000240 8f 65 28 bc 46 4e 8b bd 54 f4 f6 bd 06 92 d4 3d
       -0.01027812 -0.06802039 -0.12058321 0.10379414
000250 44 68 fc 3d 73 93 38 bc 2e 9d 24 bd 10 78 88 bc
       0.123245746 -0.011265623 -0.04018896 -0.016658813
000260 22 0a d0 bd 8b 12 0b bb d9 4b 15 bd 6a 88 ea bd
       -0.10158183 -0.002122077 -0.036449287 -0.114518
000270 cc 05 b7 3d a5 7a 84 bd c7 3c a6 bd 38 da 6b bd
       0.089366525 -0.06468705 -0.08117061 -0.057581156
000280 c2 80 3c 3d 0e ec 80 3c 08 67 b5 bc 4a e8 26 3c
       0.04602123 0.01573756 -0.022143856 0.010187218
000290 26 f8 f9 3a fa 05 ca 3c 1a 06 f1 3d eb ef 96 bd
       0.0019071146 0.024661053 0.11768742 -0.073699795
0002a0 98 9c 91 bd 13 d9 ef bc 48 d8 8f bc 94 d6 9c 3d
       -0.07109946 -0.029278314 -0.017559186 0.07658115
0002b0 91 ea dc bd 11 4d b3 3d 42 92 09 3d a7 34 9e bc
       -0.107869275 0.087549336 0.033586748 -0.019312216
0002c0 33 0c af bd b9 48 af bd c8 1a 8c bd 49 48 d9 bd
       -0.08547249 -0.085587926 -0.068410456 -0.106094904
0002d0 63 46 a8 bc 16 a7 21 bd e2 e5 c9 3d ef 53 31 3c
       -0.020541376 -0.039465986 0.098583 0.010823234
0002e0 42 52 be bd 6c 56 9d 3b 41 0e f5 bd e9 c8 82 3d
       -0.09293033 0.004801562 -0.11965609 0.06385977
0002f0 a9 93 af 3d e5 f3 e4 3c 48 f0 83 3d e8 b5 ff bb
       0.08573086 0.02794833 0.064423144 -0.0078036673
000300 0f 47 ca bd 19 e8 c5 bd 91 54 04 3e 96 96 82 bc
       -0.098768346 -0.0966341 0.12922885 -0.015940946
000310 0c 82 ce bd 2e aa 49 3c e9 7d a7 3d 59 a8 d2 bb
       -0.10083398 0.01230864 0.08178312 -0.00642876
000320 e8 d6 8b 3d f9 df d7 bd 52 83 3a bd e9 5a 7d 3d
       0.068280995 -0.10540766 -0.045535393 0.061854277
000330 09 a2 bd bc 6a 6d 28 bc 12 55 a0 3b 8d 35 34 3d
       -0.023148553 -0.010279993 0.0048929537 0.043996383
000340 e3 ba 44 3c 18 a8 a2 3d 7d aa 98 bd db b5 e0 3d
       0.012007448 0.079422176 -0.07454393 0.10972186
000350 b0 00 9b bd f3 75 db bc 04 92 f3 3d 14 6d 29 bd
       -0.075684905 -0.026789641 0.11893085 -0.04136379
000360 d6 5f f3 bd d3 a1 bc 3c cb 95 9c 3d b3 26 03 3e
       -0.11883514 0.023026383 0.07645758 0.12807731
000370 c1 45 bf bd 21 56 4e 3c b5 d6 2e 3d ac 35 8d 3d
       -0.093394764 0.012593777 0.04268523 0.06895003
000380 de 82 46 bd 29 af b2 bd 03 3e 21 bd 33 5b 6e 3d
       -0.04846465 -0.087248154 -0.03936578 0.058192443
000390 b4 f7 b5 bd ab f2 fd 3d 70 6f b7 bc 7b e2 97 bd
       -0.08885136 0.12399801 -0.022392005 -0.074162446
0003a0 a0 03 a1 3d c3 eb 6d bd 8a 33 f1 3d 75 28 78 3d
       0.078620195 -0.058086168 0.117774084 0.060585458
0003b0 44 5e a3 3c 85 d0 a8 bc 24 8f af b8 28 87 4f 3d
       0.01994241 -0.020607242 -8.371312e-05 0.050666004
0003c0 95 da 96 bd 41 49 a5 3d f8 29 f9 bd e4 8d c8 b8
       -0.0736591 0.08070613 -0.12166208 -9.563172e-05
0003d0 20 8a 57 3d 00 ed b6 3d 9a 68 9d bd 0f ea f7 3d
       0.05262196 0.08931923 -0.07685967 0.1210519
0003e0 38 42 e6 bd 1e 31 c8 3d 7a 9d a3 3d 71 b0 fa bd
       -0.11243099 0.09774993 0.07989021 -0.12240685
0003f0 51 fb 85 bc 0c 4e e1 bd 8e 50 85 bd f1 7b 76 bb
       -0.016355189 -0.110012144 -0.06509505 -0.0037610496

seq_conv.bias f4 [64]
000000 59 72 95 bd 3c b7 9f 3c 84 c8 ca bd 7d c4 e3 bd
       -0.07297201 0.019496553 -0.099015266 -0.111214615
000010 f3 b1 6d bd ba 91 71 bd b9 ac 9f 3d 39 6b 72 3d
       -0.058031034 -0.058976866 0.07796616 0.059184287
000020 82 02 ea 3d 72 57 af 3d ff 2a be bd 7d 7f 96 3d
       0.114262596 0.08561601 -0.092855446 0.07348535
000030 ce 26 ab 3d b4 0b 90 3d ae d1 df bd 52 87 d4 3c
       0.08357011 0.07033482 -0.10928665 0.025943432
000040 05 8d 56 3d d4 9b dc bd a6 ca d7 3d c8 a7 ee bd
       0.05238058 -0.10771909 0.10536699 -0.116530955
000050 fe 1a 23 3d 1f 5e fc 3c aa ec af bc 99 de ec bd
       0.039820664 0.0308066 -0.021475155 -0.11565895
000060 96 c2 89 bd 99 23 da bd 10 da be 3d 06 80 00 be
       -0.067265674 -0.10651321 0.09318936 -0.12548837
000070 a8 f3 ff bd 1b 5e e8 3d 11 6c 83 bc 90 2c bb 3b
       -0.124976456 0.11346074 -0.016042741 0.0057120994
000080 ee 3e fc 3d ed 58 9f 3d c9 5e b7 3c 25 6d 1a bc
       0.123166904 0.07780633 0.022384064 -0.009425436
000090 d7 72 c4 bb 03 8d bc 3d f6 28 05 be 0e 15 14 bd
       -0.0059951353 0.09206583 -0.13003907 -0.03615289
0000a0 c0 e3 03 be ba 86 13 3d ea cf 28 bd d4 39 e3 bd
       -0.12879848 0.036017157 -0.041213907 -0.11095014
0000b0 af d0 f3 bd a3 b7 43 bd ea 8e bd bd 0e 39 b2 bc
       -0.119050376 -0.04778255 -0.09255774 -0.021755721
0000c0 3c 29 56 3d 06 96 18 bd 18 01 39 3d 27 ca 5f 3c
       0.052285418 -0.03725245 0.04516706 0.013659037
0000d0 6c 72 18 b9 97 8a 32 3c 70 37 66 3d 3e e0 a4 bd
       -0.00014538475 0.0108973 0.056205213 -0.08050583
0000e0 32 0f f7 bc 36 c1 8b bd 14 f0 4f 3d fb 7e 6b bd
       -0.030158613 -0.068239614 0.050766066 -0.057494145
0000f0 28 cb 1d 3d 57 e3 b6 3d 08 ca 69 3d d9 8d 83 bc
       0.038523823 0.089300804 0.057077438 -0.01605885

atac_conv.weight f4 [16, 1, 15]
000000 61 32 04 be a7 45 6a be 1f 5b 00 bd cb c0 ce bd
       -0.12909843 -0.22878133 -0.0313369 -0.10095366
000010 92 a6 16 3e 36 19 2e 3e 5f b0 cd 3d 0d ab 75 3e
       0.14711979 0.17001805 0.10043406 0.23991032
000020 a3 cc 4a be e9 52 c9 3d b2 70 aa bd f2 ee 73 3e
       -0.19804625 0.09830267 -0.08322276 0.23821619
000030 37 63 bc bc c1 c6 ca bd 93 f8 fa bd 1b 47 05 bd
       -0.022996528 -0.099011905 -0.12254443 -0.032538515
000040 ae b9 45 3e 06 b8 b7 bd 92 bb 10 be 95 28 22 3e
       0.19309112 -0.089706466 -0.14134052 0.15835793
000050 4a 23 88 bd 48 0a d2 3c b3 1a 48 be 2c 26 ae bd
       -0.06647356 0.025639668 -0.19541435 -0.085033745
000060 57 12 17 be 8f 4a 42 bd ea 8b 85 bd e7 28 70 bd
       -0.1475309 -0.047434386 -0.06520827 -0.058632758
000070 8f 9c 08 be 24 36 d9 3d 8b 71 55 3d 26 ea 23 3e
       -0.13340972 0.1060603 0.052110236 0.1600729
000080 b3 8e f3 3d e8 21 52 be b9 1f 1a be 01 79 02 be
       0.11892452 -0.20520747 -0.15051164 -0.12741472
000090 5c 03 71 be 61 f0 bb 3d 7f 4c c4 3d 86 ca 29 be
       -0.23536438 0.09176708 0.09584903 -0.16581163
0000a0 14 e8 2e be cf fd 4c 3e f5 32 02 3e 76 90 f5 bd
       -0.17080718 0.20018695 0.12714751 -0.11990444
0000b0 23 07 61 3d ee 83 af 3d ff 1e e3 3c 0f d7 64 bd
       0.054938447 0.085700855 0.027724741 -0.05586916
0000c0 aa ae 90 bd 84 e6 3e be ae 9c aa bd c9 ef 62 be
       -0.070645645 -0.18642622 -0.083306655 -0.22161783
0000d0 dd d5 40 3e f0 fa 84 bc d8 4f a5 3d 18 22 77 be
       0.18831582 -0.016232938 0.080718696 -0.241341
0000e0 ee 2c 14 be a5 15 ae bd d1 3a 34 be 24 bc 3a 3e
       -0.14470264 -0.08500222 -0.17600562 0.18235832
0000f0 74 ef 2d be 2f c7 c1 bd a6 e3 e6 3d 3d 4e 6c 3e
       -0.16985875 -0.094618194 0.11273889 0.2307672
000100 10 fa 5a be 9c bb 55 be 6d cb 1d be 0b 54 b3 3d
       -0.21384454 -0.20872349 -0.15409632 0.08756264
000110 67 f7 28 3d 60 b4 32 3b 66 41 33 be c7 ad 23 be
       0.041251566 0.0027268156 -0.17505416 -0.1598426
000120 d5 98 36 be 7a a1 8d bd d2 d2 4f be a3 c5 05 3d
       -0.17831738 -0.06915565 -0.20295265 0.032659184
000130 6f d1 51 bb d4 5b f2 bd cd 12 b8 3d 1b 68 3b be
       -0.0032015701 -0.11833921 0.08987961 -0.18301432
000140 bb fe 81 3e 20 f0 b8 bb d8 ea 4d bd d4 fa 18 bd
       0.25389656 -0.0056438595 -0.050272793 -0.037348583
000150 f8 7a 4d be f5 61 f7 bb ea b0 40 3e 43 48 ac 3d
       -0.2006644 -0.007549519 0.18817487 0.0841222
000160 8f 69 fc bd 45 d6 90 3d 18 97 04 bd 7e c5 f0 bc
       -0.12324821 0.07072119 -0.032370657 -0.029391047
000170 60 37 1a 3e 0e 87 73 be 21 0a d9 3b 06 c1 08 be
       0.15060186 -0.23781988 0.006623522 -0.13354883
000180 bc 6d 6e 3d 1f df c9 bd 8f e6 cf bd b0 c8 a2 bb
       0.05821012 -0.0985701 -0.101513974 -0.0049677715
000190 25 e3 49 be 02 1e 5c be b8 ee 17 be 94 5d 2a be
       -0.19715555 -0.21495822 -0.14837158 -0.1663726
0001a0 a6 97 0e 3e d0 f1 50 bd 7d 13 4a bd 27 2a 61 be
       0.13925037 -0.05101186 -0.04933499 -0.21988736
0001b0 ba 57 e4 bd 36 9b 0b 3e c4 a1 43 be 16 3e 7a 3e
       -0.11149545 0.13633427 -0.19104677 0.24437746
0001c0 d2 a1 2d be 49 4d 21 be 7a a0 55 be 90 cd 4c 3d
       -0.16956261 -0.15752138 -0.20861998 0.050000727
0001d0 29 5a 5a bc 64 1f 40 be 39 61 ed 3d c6 8e aa 3c
       -0.01332716 -0.18761975 0.115908094 0.020820033
0001e0 87 07 7a bd 32 5c b5 3c 5d cc 33 be e0 41 d0 3d
       -0.061042335 0.022138689 -0.17558427 0.10168815
0001f0 4b 3f 5d be bd 76 86 3d 33 51 48 3e 71 55 97 bd
       -0.21606176 0.06565616 0.19562225 -0.073893435
000200 ac b2 6e 3e 4f 61 57 3e 16 8d 14 3e a4 98 7d be
       0.23310345 0.21033214 0.14506945 -0.24765259
000210 ba a7 5d be d6 92 ea 3d 6a 16 c5 bd 4f c4 42 be
       -0.21646014 0.11453788 -0.09623416 -0.19020198
000220 65 93 66 be 27 a4 39 3e 87 de 45 3e 2e 1d 23 3d
       -0.22517164 0.18129025 0.19323169 0.03982275
000230 55 3e 9c 3c cf 4b 5c 3e 68 ee 0b 3e 08 37 1d be
       0.019072691 0.21513294 0.13665164 -0.15353024
000240 07 e8 81 3e c3 05 7d 3e d5 48 74 3e 37 89 4f 3e
       0.25372335 0.24709229 0.23855908 0.20267187
000250 5e 32 79 3e 71 66 ce 3d 35 cf 4d 3e 28 f3 91 3c
       0.2433562 0.10078133 0.20098574 0.017816141
000260 e0 27 1e 3c 3b a3 0f 3e e9 9b 82 be 2e 78 a8 bc
       0.009653062 0.14027111 -0.25509575 -0.020565119
000270 af e2 6a be 30 f4 53 3e f6 e2 27 3e 05 cf 69 be
       -0.22938035 0.20698619 0.16395172 -0.22832878
000280 53 12 c4 3d da d5 4b 3d c1 23 23 3e 94 1f 0e 3e
       0.095738076 0.04976449 0.15931608 0.13879234
000290 bc 71 81 3e bb 27 02 be ae 10 11 be 64 4c 3f be
       0.25282085 -0.12710468 -0.14166519 -0.18681484
0002a0 3c be 19 3e 4b c2 67 3d 62 97 7f 3c e9 a0 11 3e
       0.15013975 0.056581777 0.015600057 0.14221539
0002b0 4d 5a 5e 3e a1 ee 1f 3e f8 73 4a 3e 1d da 2c be
       0.21714135 0.15618373 0.19770801 -0.16880079
0002c0 5c f0 62 be 22 d0 1d 3d ef 8b 2f 3e f2 f4 c3 bc
       -0.22162002 0.03852857 0.17143224 -0.02392051
0002d0 fd 1d 73 3e 17 c2 ea bd fe c2 80 3e 86 75 0a 3d
       0.23741908 -0.11462801 0.25148767 0.033803485
0002e0 92 8f 15 3b 77 aa 83 3c 70 18 85 3c 57 00 4d be
       0.002282117 0.016072495 0.016247004 -0.20019661
0002f0 d4 03 80 bd f8 9f bd bd 95 4c dc 3d 5a dd 24 be
       -0.0625073 -0.09259027 0.10756794 -0.16100064
000300 8b 6f 78 be f8 c3 63 be 55 b2 82 3e ad 65 91 bd
       -0.242613 -0.22242725 0.25526682 -0.07099471
000310 1a d7 2c 3e 11 94 08 3e 73 fa ce bd 10 9a 29 bd
       0.1687893 0.13337733 -0.10106363 -0.04140669
000320 8b 61 ae 3d d4 00 79 be 15 e5 ad bd 05 e9 e1 3d
       0.085146986 -0.24316722 -0.084909596 0.11030773
000330 8c 8c 04 3e 4f eb 79 3e 98 c0 1c bd e4 04 26 be
       0.1294424 0.2440617 -0.03826961 -0.16212803
000340 ea 98 92 3d a4 71 55 bd a3 4c 80 be a9 18 a6 bb
       0.07158072 -0.05211033 -0.2505847 -0.0050688577
000350 2f d9 e2 3d 25 c0 71 3e c6 2b 80 bd 9f 78 6a 3e
       0.11076581 0.23608454 -0.06258349 0.22897576
000360 5a b3 41 bd ac ff 19 be 50 7f 57 3e ab 03 7f be
       -0.047290184 -0.15038937 0.2104466 -0.24903743
000370 58 fe a2 3d 3e 23 2b bd 08 9e 6c 3e df 2d 52 3e
       0.079586685 -0.041781656 0.23107159 0.20525311
000380 f6 a7 75 3e 68 46 fc bd eb 51 78 be d4 20 51 3e
       0.23989853 -0.123181164 -0.24249999 0.20422679
000390 43 30 43 3e 71 f6 77 bc a6 18 db bd e5 2f a8 3d
       0.19061379 -0.01513444 -0.10698061 0.0821226
0003a0 46 a7 3b 3e 94 24 82 3e 21 f6 b7 bd 7a 92 65 be
       0.18325529 0.25418532 -0.08982492 -0.22419158
0003b0 e1 90 a4 3c 51 e3 4b 3e 5d 3a 7f 3e 63 9b 44 bd
       0.020088615 0.19910933 0.24924608 -0.04799975

atac_conv.bias f4 [16]
000000 00 8c 2b 3b 87 a9 2a be 8d 1f 69 bd 2d 97 2c bd
       0.0026175976 -0.16666232 -0.056914855 -0.04213636
000010 db 45 82 3d 92 d5 7d 3e 3c db 1a be ec a9 cd bc
       0.0636098 0.24788502 -0.15122694 -0.02510544
000020 83 92 81 3e fb ab 60 be 0e 9c c1 bd 8f 1b 0a be
       0.25307092 -0.21940605 -0.09453593 -0.13487075
000030 31 7f 38 3e a7 4d 43 be 6f b2 6d 3c 29 76 b0 bd
       0.1801727 -0.19072591 0.014507874 -0.08616287

motif_fc.weight f4 [16, 693]
000000 12 87 d2 3a 6c 65 96 bc 5a 21 48 bb 84 f1 ef ba
       0.0016061983 -0.018358909 -0.0030537457 -0.001830623
000010 0d 1d c4 3c 21 9e f9 3c 7d 0c 17 bc 9f db ef 3c
       0.023939634 0.03047091 -0.009219286 0.029279528
000020 e9 6b 1d bd 36 f0 e8 bc 16 01 a7 bc 4c 01 21 bd
       -0.03843299 -0.028434854 -0.02038626 -0.039307877
000030 a9 b2 0b 3d f6 7a ce bc b0 ef 8b 37 42 34 b8 3c
       0.03410593 -0.025205117 1.6681704e-05 0.022485856
000040 ae f0 df 3c ca 18 e7 3a 96 ae d6 3a 9c 5d 21 3c
       0.027336445 0.0017631289 0.0016378935 0.009848978
000050 54 f2 9e bc c4 dd 88 3c d7 e0 42 bc 04 56 08 bd
       -0.01940266 0.016707309 -0.011894426 -0.033285156
000060 67 83 ff 3c 78 25 05 bd dc 6b 11 bd df 2e 09 bd
       0.031190587 -0.032506436 -0.035503253 -0.033491965
000070 13 36 0f bc 62 9f 76 3c 7a 6c e1 3b 50 c4 07 3c
       -0.00874092 0.015052648 0.0068793865 0.008286551
000080 d1 62 01 bd 80 f9 03 3d 6d 13 01 3d 48 b5 b9 bc
       -0.03158838 0.032220364 0.031512666 -0.02266945
000090 12 ff 09 bd 59 ec b5 bc 4a 9a 90 ba bc cc 1e 3c
       -0.03369052 -0.022207426 -0.001103231 0.009692367
0000a0 03 d0 df bc b2 3b 65 3b 76 95 e7 bc cb 87 a4 3c
       -0.027320867 0.0034978208 -0.02826951 0.020084282
0000b0 0c a4 36 3c 30 13 04 3c f6 23 66 3c f8 03 5a 3c
       0.01114751 0.008061215 0.01404666 0.01330661
0000c0 16 d9 c7 3c f1 58 0b 3d ea 57 a7 3c b6 22 19 3c
       0.024395507 0.034020368 0.020427663 0.009346655
0000d0 84 43 5d 3c b4 94 dd bc e0 ee 24 3c d2 cd f4 3c
       0.0135048665 -0.027048446 0.010066718 0.029883299
0000e0 25 dd 08 bd 4a a4 bf bb 79 70 b4 3c e5 b8 b6 3c
       -0.033414025 -0.005848442 0.022026287 0.022304961
0000f0 fc 56 bb 3c 8e 62 f9 3c 9c 50 87 3c d7 37 d8 3c
       0.022868626 0.030442502 0.01651793 0.026393814
000100 f7 f2 01 3d 0c f3 b9 bc 5a 14 30 bc de 59 99 bc
       0.03172585 -0.022698902 -0.01074704 -0.01871961
000110 df 2d 09 3d c4 26 03 bc 0f b2 1c 3a fa ea ae bc
       0.03349101 -0.008004848 0.00059774605 -0.02135228
000120 88 3a 1d bc da 91 df bc 21 a0 a8 bc 68 d6 4f bc
       -0.0095964745 -0.027291227 -0.020584168 -0.012685396
000130 e2 7c d5 3c 7b 59 f8 ba b2 bc 23 bd 19 29 b8 bb
       0.026060525 -0.0018947566 -0.039974876 -0.0056201336
000140 b4 c0 8d 3c 54 15 12 bd df 21 e8 bc a4 23 e2 3c
       0.017303802 -0.03566487 -0.028336463 0.027604885
000150 51 1b 3a 3b dd 46 08 3d 96 69 8c 3c 74 c1 54 bc
       0.002839763 0.033270705 0.017140191 -0.012985576
000160 61 93 8e ba bb c2 0e bd a9 0b eb bc 7e 89 ef bc
       -0.0010877663 -0.03485368 -0.028692083 -0.029240366
000170 da 59 18 bd 3d 03 cd bc 98 a7 a9 3b ee d6 f9 3b
       -0.037195064 -0.025025958 0.0051774494 0.0076244986
000180 ee a9 51 3c a9 5a e2 3c 4e 83 1b 3c 8a 57 9a 3c
       0.012796862 0.02763112 0.009491755 0.01884057
000190 2b 8d 8e 3c 2b 82 eb bc 30 6f 78 ba 50 5d b9 3c
       0.017401299 -0.028748592 -0.00094770174 0.022627503
0001a0 32 11 80 3a 30 d2 26 3c 2d f9 ba bc 02 7a 0d bd
       0.000977075 0.010181949 -0.022823894 -0.034540184
0001b0 4d da 7a 3b 88 ea 0c bd 25 2b 98 ba 9c 70 f1 3c
       0.003827709 -0.034403354 -0.0011609538 0.029472642
0001c0 be 08 57 bc f1 3a e1 3b 13 7a 2d bc 83 28 e9 3c
       -0.013124643 0.0068734814 -0.010588187 0.0284617
0001d0 39 ce 65 3c b9 86 45 bc e5 2f 46 3c 0e 07 41 bb
       0.014026218 -0.012056046 0.01209638 -0.0029453668
0001e0 ae 21 f9 3c 83 92 7b 3b 4d 37 19 bd 5c 7b 0c 3d
       0.030411568 0.0038386888 -0.037406255 0.034297332
0001f0 47 b6 b1 3b b3 ab 6d bc 50 f6 1d bd 2c 6f c7 3c
       0.0054233405 -0.014506268 -0.03856498 0.024345003
000200 0f ca ac 3c 2b 07 92 3c 58 7d 1e 3c 9f 60 9f 3c
       0.021092443 0.017825684 0.009673439 0.019455252
000210 64 42 e8 bc 54 8c 84 bc 0f a3 08 3d ce 1a d5 bc
       -0.02835197 -0.016180195 0.03335863 -0.026013758
000220 3e c2 5b 3c f3 2f 83 bc 9c 29 1c bd 99 d9 23 3c
       0.01341301 -0.016014075 -0.03812562 0.01000061
000230 ca 00 ab 3b d6 5d 8a 3c f4 e1 d1 bc cc 19 c3 3c
       0.0052186 0.016890448 -0.025620438 0.023816012
000240 8c 8c 19 bd c8 d0 f5 bc 40 c1 95 3c 67 0e f0 bc
       -0.03748755 -0.030006781 0.018280625 -0.029303743
000250 84 92 e0 bc d4 fa 14 bd 0c 89 d5 bb 20 88 ef bc
       -0.027413614 -0.03637202 -0.0065165814 -0.029239714
000260 59 5b b9 bc 04 fa 0a bd 03 eb 22 3c a9 f2 13 bd
       -0.022626566 -0.03392984 0.0099437265 -0.03612009
000270 3e cc e5 bc 34 17 25 bd 9a 66 d4 bc da f1 a0 bc
       -0.028051492 -0.04030533 -0.02592783 -0.019646574
000280 f1 87 79 bc 1f c1 9d 3c 58 20 41 3c a9 35 e1 3c
       -0.015230165 0.019257126 0.0117874965 0.027491407
000290 d5 9e d5 bc 72 35 1e 3c 6b 7e 28 3c 9f 5d 40 3b
       -0.026076714 0.009656297 0.010284047 0.0029352678
0002a0 7c 02 05 3d 48 a7 40 bc 21 23 06 3d de 49 15 bd
       0.032473072 -0.011758633 0.032748345 -0.0364474
0002b0 3a 50 ba bc 84 de 4b 3c f3 28 94 3c 16 cd 0f bd
       -0.022743333 0.012443189 0.018085932 -0.035107695
0002c0 89 8c e3 bc 35 4b 3c 3c 02 08 3c 3c 44 0a a2 bc
       -0.027776973 0.01149254 0.011476519 -0.019780286
0002d0 e3 d0 6c 3c e8 90 c3 3c cf 48 14 bd 8a 2e e4 3c
       0.014454099 0.023872808 -0.03620225 0.027854223
0002e0 93 33 26 bb 8b b7 c1 ba a0 16 b9 bc 29 e4 0b bd
       -0.002536033 -0.0014779432 -0.022593796 -0.034153137
0002f0 80 8e 3e bc 3d 3d 10 bd 3a 01 a6 bb 65 dc d7 3c
       -0.011630654 -0.03521465 -0.005066064 0.02635021
000300 50 3f b8 bc 78 8c 13 bd 0d ac ff bc c6 cf e9 3b
       -0.022491127 -0.036022633 -0.03120997 0.007135364
000310 33 d6 97 ba c8 c2 cc bc 6e 34 88 3c 4f c8 a2 bc
       -0.0011584222 -0.024995223 0.016626563 -0.019870905
000320 e5 66 04 3d 42 af 9c ba 81 60 9f bc 0e b2 3d bc
       0.03232469 -0.0011954086 -0.019455196 -0.011578096
000330 45 11 05 bb 38 0d bc ba ee ab 8e 3c 59 7f 17 bd
       -0.0020304483 -0.0014347201 0.017415967 -0.036986683
000340 e4 d9 0f 3b fc 45 15 bd 18 f9 a4 bc ae a5 d2 bc
       0.0021949941 -0.036443695 -0.020138308 -0.025713768
000350 9e 20 0d 3d 2e 99 12 3c ea e4 1a bc b3 96 c0 bc
       0.034454934 0.008947654 -0.009453991 -0.023509359
000360 e9 20 a9 3c 51 c8 d3 3b 34 09 a9 39 e2 a1 09 bd
       0.020645576 0.0064630886 0.0003224105 -0.03360165
000370 c8 ba 19 3c f7 75 0a bd 14 d7 d6 3c a2 c6 24 bd
       0.009382911 -0.033803906 0.026225604 -0.040228494
000380 0b 99 d7 3c 99 03 1b bd 43 9f 07 bc 1a b9 6c 3c
       0.026318094 -0.037845228 -0.008277717 0.0144484285
000390 5c 11 12 bd ef e3 d7 3c ce 38 a1 3c e4 f6 25 bd
       -0.035661086 0.026353804 0.019680407 -0.040518656
0003a0 d4 09 fa bc 4e 7e 24 3c 7e d6 ad 3c b1 62 b7 3c
       -0.030522265 0.010039879 0.021220442 0.022385927
0003b0 e2 57 4f 3b 4c f5 0e bd e1 2b d6 3c 84 0c 1e bd
       0.0031638076 -0.034901902 0.02614397 -0.038586155
0003c0 80 27 81 bc 4b 94 10 3c 84 83 a6 3b b7 0d 5e bc
       -0.015765905 0.008824418 0.005081596 -0.013553075
0003d0 14 a2 d7 bc 0e 47 e8 bc bf 3a b3 bb a2 90 04 bd
       -0.026322402 -0.028354194 -0.0054696496 -0.032364495
0003e0 fd fe ab bc 7c c5 4c 3c 50 e8 84 bb 6c d4 ac bc
       -0.020995611 0.012498256 -0.004056014 -0.021097384
0003f0 e0 f8 ae 3b 67 1b bd bb 7e 8d 40 bc 74 32 fd bc
       0.005339727 -0.005771089 -0.011752484 -0.030907847

motif_fc.bias f4 [16]
000000 85 a9 72 bc d3 dd cd 3c 4c 02 0d bd b0 78 e9 bc
       -0.014810924 0.025130188 -0.03442602 -0.028499931
000010 24 de 37 39 05 ba 4f 3c 54 c0 85 3c ca fc c8 3c
       0.00017534994 0.012678628 0.01632706 0.024534602
000020 57 62 22 bd 83 05 a5 bc 97 73 17 3c 8a a8 50 3b
       -0.039644565 -0.02014423 0.009243867 0.0031838738
000030 00 da 63 ba 00 ce 89 bb 11 81 19 bc c6 8c 31 3c
       -0.00086918473 -0.0042054653 -0.009369151 0.010836786

transformer.self_attn.in_proj_weight f4 [192, 64]
000000 6c f3 db bd f1 9a cd bd 38 0d a5 3c 39 a2 ef bd
       -0.107397884 -0.10039318 0.020147905 -0.117008634
000010 f0 ea 37 bc be 79 86 bd 1c 3b 0e 3e bd d5 b2 bd
       -0.011225447 -0.06566189 0.13889736 -0.087321736
000020 65 7b 01 3e 58 cc dc 3d 5e 92 0d 3e 8a 18 e7 bc
       0.12644728 0.10781163 0.13825366 -0.028209943
000030 d7 7d 59 3d 8b 9d cd bd a8 78 d5 3d 91 a0 14 be
       0.053098526 -0.100398146 0.10423404 -0.14514376
000040 b3 5a bf 3d 58 f7 e6 bc 71 5c ba bd a1 84 5d bb
       0.093434714 -0.028194115 -0.09099663 -0.0033800977
000050 e0 4a bb 37 53 04 b8 3c 2a bd 9d bd b8 63 03 bd
       2.2327004e-05 0.022463 -0.07702096 -0.03207752
000060 11 ad 8c 3c 77 e9 85 bd 04 1d 05 3e 0c 77 59 bc
       0.017172368 -0.065386705 0.1299935 -0.013273012
000070 34 4b 81 3d 2e 9c ff 3c 49 09 e0 bd 45 c8 b8 bd
       0.06313172 0.031202402 -0.10939271 -0.090225734
000080 00 66 1f be e8 04 b8 bd 46 9d a7 3b 62 41 ea 3d
       -0.15566254 -0.08985311 0.005115184 0.11438252
000090 47 07 12 3c 54 f8 16 3e ed d3 91 3c b9 07 0d 3c
       0.008912868 0.14743167 0.01780125 0.008607798
0000a0 6c d3 65 bd dd 18 05 bd a2 74 39 bd e4 1b 01 be
       -0.05610983 -0.032494415 -0.045277245 -0.12608296
0000b0 a7 0e 25 bd fe de 88 3d eb d8 ab 3d c0 1c 10 3e
       -0.040297177 0.066831574 0.08390983 0.14073467
0000c0 fe f7 e2 3d c6 67 87 bd 86 f6 0e 3e 72 fe dc 3c
       0.11082457 -0.0661159 0.13961229 0.026976798
0000d0 8e 30 e5 3b 76 54 b4 bd 03 a2 3e 3d fc 9d fc bd
       0.0069943136 -0.08805172 0.046541225 -0.12334821
0000e0 e5 c5 84 3d 67 2b bc 3d 05 fd 42 3b 82 62 65 bd
       0.06483058 0.09187966 0.0029752862 -0.056002147
0000f0 2e f4 e6 bc 4b 10 b2 3d 4d e8 a5 bd 94 27 7a bd
       -0.028192606 0.08694514 -0.081009485 -0.0610729
000100 e8 f8 87 bd e2 c2 9f 3d 0a 2a 06 be 74 20 27 3d
       -0.06639272 0.07800843 -0.13101974 0.040802434
000110 1d de 2f 3d 70 e3 b1 3d 40 9d d5 bd 57 91 88 3d
       0.042936433 0.086859584 -0.10430384 0.066683464
000120 40 ba 07 3d 5a cb 8d 3d bc 92 bf 3d 5b 69 2f 3d
       0.033136606 0.06923552 0.09354159 0.042825084
000130 d6 f7 4a 3d d3 10 10 be 13 16 d4 bd 0e 92 ca bd
       0.04955276 -0.14068918 -0.10355773 -0.09891139
000140 25 84 1d be 3f 2c 42 3d 1b 5b d6 bc 9f 25 20 3e
       -0.1538244 0.047405478 -0.02616649 0.15639351
000150 3d 66 d9 3d 84 ff 0a be fc ce 30 3d b9 25 41 bc
       0.106152035 -0.13574034 0.043166146 -0.011788779
000160 45 a2 a0 3c 8b 70 de 3d 95 e9 f4 bd 03 42 67 bc
       0.019608626 0.108613096 -0.11958615 -0.0141148595
000170 ed 58 87 3c 88 48 ba 3d fc e8 fc bb 13 bc ed bd
       0.016521895 0.090958655 -0.0077182036 -0.11608138
000180 7a 39 8f bd 30 52 a4 3d 40 e7 53 bd 55 7f b0 3d
       -0.06993385 0.080234885 -0.05173421 0.08618037
000190 a2 67 0c 3e fb 12 01 be 61 c5 05 be b3 c9 17 3e
       0.13711408 -0.12604897 -0.13063575 0.14823036
0001a0 54 f4 a2 bd f0 b5 dc bd d9 1f 12 3e f0 e2 05 be
       -0.07956758 -0.10776889 0.14269961 -0.13074851
0001b0 ed 49 b5 3d 6f fd d3 bd b3 20 9b 3d a5 52 87 3d
       0.08851991 -0.10351073 0.07574596 0.0660756
0001c0 14 f8 40 bd 17 26 b6 3c 04 8c 29 3d ae c0 55 bc
       -0.047111586 0.02223496 0.041393295 -0.013046427
0001d0 87 0d 08 be 75 c8 82 3b 84 57 b7 3d c9 d6 01 3e
       -0.1328641 0.0039911815 0.08952239 0.1267959
0001e0 cf 13 ed bd ac 8b a3 bb f2 e6 3d 3d cb 78 55 3c
       -0.11576044 -0.0049910154 0.046362825 0.013029288
0001f0 32 62 8a bd 01 51 fc 3c 5d 20 fc bd 60 9f 8d 3d
       -0.067570105 0.030800344 -0.1231086 0.06915164
000200 13 44 4c bd 60 c3 89 3d 4a 74 1c 3d 4f 92 4c bd
       -0.049869608 0.06726718 0.03819684 -0.04994422
000210 f4 15 ea bd 23 13 fc bc 07 98 56 3d 45 8c ac bd
       -0.114299685 -0.030770844 0.05239108 -0.08425192
000220 00 93 cc 3d c9 8c b5 3d ee b8 94 3d ac 6c 9c bd
       0.099889755 0.08864743 0.07261835 -0.07637915
000230 09 4f 8c bd a9 6e f2 3d 13 62 02 be 9d 5c 8e bd
       -0.06851012 0.11837513 -0.12732725 -0.06951258
000240 72 da b7 bd 7c 1a 0b be 94 e6 ef bc 07 1c e7 bd
       -0.08977212 -0.13584322 -0.029284753 -0.11284643
000250 f3 2d e2 3d 41 ab c6 bd 2a 2c 2b bd b0 0f 3f 3d
       0.1104392 -0.09700633 -0.041790165 0.04664582
000260 d2 93 6e 3d d9 3b 06 3e bb c0 09 be 52 fc 41 bd
       0.05824644 0.13108768 -0.13452427 -0.047359772
000270 8d eb cd bd 90 a0 2d bc 63 23 b4 3d 2e 4c 89 bd
       -0.10054693 -0.010597363 0.08795812 -0.06703983
000280 c7 49 8f 3d db d8 51 bd 2d f5 16 be f0 e4 d8 bd
       0.06996494 -0.0512322 -0.14741965 -0.10590541
000290 31 1b 0e be 1f 63 07 be c1 25 b8 3d a8 d2 91 3d
       -0.1387756 -0.13221405 0.08991576 0.071202576
0002a0 c0 01 0b 3d dd f0 18 3e 26 35 1f 3e d8 90 ed bd
       0.033937216 0.14935632 0.15547618 -0.115998924
0002b0 ee 01 09 3e 4b d6 90 bd bc fb aa bd 71 cf 14 be
       0.13379642 -0.07072123 -0.08348796 -0.14532258
0002c0 b3 6e 69 3d a6 1b 03 3e 57 31 f6 bd 9b 2f 99 3d
       0.056990337 0.12803516 -0.120211296 0.07479783
0002d0 43 d4 d5 3d 28 3b 77 3c 3c fa 06 bd 35 fd 6b bd
       0.10440876 0.015089788 -0.032953486 -0.057614524
0002e0 14 6c 82 3d 96 59 0b 3e 47 1c 96 bd dd 0a d7 3d
       0.063682705 0.13608393 -0.07329612 0.10500119
0002f0 19 b1 bd 3d b5 80 35 3d f4 67 d1 bc 4e c2 a0 3c
       0.09262294 0.044312198 -0.025562264 0.019623902
000300 72 d2 d0 bd 30 6f a2 bc 27 ad b5 bd 49 5c a5 3d
       -0.10196389 -0.019828409 -0.08870917 0.080742426
000310 47 65 21 bd 83 4f 06 bd f7 08 d8 bd 5e ef 1b be
       -0.039403226 -0.032790672 -0.10548585 -0.1522803
000320 65 22 ee 3d 78 7a da bd f3 e6 b1 3d 4a f5 7a bd
       0.11627654 -0.1066789 0.08686628 -0.061269082
000330 f2 06 8f bd 9e c3 24 3c 2d 55 16 be d5 cf 8a bd
       -0.069837466 0.010056404 -0.1468093 -0.06777922
000340 80 d7 c1 3d d6 09 a6 bd ac 90 0e 3c f2 a2 d3 3c
       0.094649315 -0.08107345 0.008701485 0.025834534
000350 6a 24 f6 3d c1 84 d3 bc 9d 6d f6 3d 89 39 00 be
       0.12018664 -0.025820138 0.12032626 -0.12521948
000360 99 92 cf 3d 98 34 15 3e 67 af c2 bd fa 7a b0 3d
       0.10135383 0.14570844 -0.095061116 0.08617206
000370 f3 0d 11 3d 20 8b a0 bd 54 39 73 3c 21 bf 20 bd
       0.035413694 -0.07839036 0.014845211 -0.039244775
000380 30 17 01 3e 00 8d e6 3d 43 c9 14 be 06 8e 92 3b
       0.12606502 0.11257362 -0.145299 0.004472497
000390 fe f1 af bd c1 4e db 3d c9 2b 00 be 37 e5 77 bc
       -0.08591078 0.107083805 -0.12516703 -0.015130333
0003a0 31 ee db bd 82 78 89 3d 0c a9 31 3d d3 97 7b bd
       -0.10738791 0.06712438 0.043374106 -0.061424088
0003b0 a9 1c 1f bc 24 f4 a0 3d c6 69 6e 3d d7 5f 32 bd
       -0.009711423 0.07859066 0.058206342 -0.04354843
0003c0 c8 24 56 3d e2 0f e6 3d 72 48 b0 3d 70 43 31 3d
       0.05228117 0.11233498 0.08607568 0.043277204
0003d0 60 1c 15 3c 5e 35 19 be 10 ee 0c be c9 fa 89 bd
       0.009101003 -0.14961764 -0.13762689 -0.067372866
0003e0 b6 7c 97 3b 1d e0 0d be ac c7 14 bd d3 ea ff bd
       0.004623021 -0.13855024 -0.036323234 -0.12495961
0003f0 90 3d ab bd ff 1a fe bd 1e ae 1f bd 2c 23 3e 3d
       -0.083613515 -0.12407493 -0.03898441 0.04642026

transformer.self_attn.in_proj_bias f4 [192]
000000 c7 7f 3f bb 40 18 2e 3b 24 48 8b bb a7 67 59 bb
       -0.0029220448 0.0026564747 -0.004250543 -0.0033173354
000010 aa b2 68 3b 62 78 10 bb 68 f5 df ba 34 2e 84 ba
       0.0035506883 -0.002204441 -0.0017086687 -0.001008457
000020 c8 52 23 bb 1d cd 4c 3b 15 a7 a0 3a 4a 8d 47 bb
       -0.0024921168 0.0031250187 0.0012256826 -0.0030449205
000030 3b c0 31 3b d7 7d 7e 3a 91 45 34 3b 32 ce 10 3b
       0.0027122635 0.00097080827 0.0027507285 0.0022095558
000040 52 7e 44 bb db 22 3f bb 18 e6 33 bb 48 b2 da 3a
       -0.002998252 -0.0029165063 -0.002745038 0.0016685212
000050 cb 4b 63 3b fc 46 30 3b d4 72 46 3b bc 88 c3 ba
       0.0034682627 0.0026897779 0.0030280845 -0.0014918069
000060 03 0f 23 3b 3f 45 ee ba b2 b6 38 bb b9 2e 71 bb
       0.0024880774 -0.0018178596 -0.0028185067 -0.003680153
000070 54 0c 37 bb 77 cc 5f 3b 33 f9 57 bb 96 c3 2b 3b
       -0.0027930932 0.003414897 -0.003295493 0.0026209108
000080 c8 00 1b 3b 36 3d 6b bb c1 fc 77 3b a3 96 47 bb
       0.0023651589 -0.003589464 0.0037839862 -0.0030454777
000090 cf a4 76 bb c5 ed 86 3b 23 e3 77 bb 72 45 2d 3b
       -0.0037634855 0.0041177 -0.0037824593 0.0026439098
0000a0 7f 30 52 bb 3c bf 1f bb e9 33 bf 3a d2 6d 4c 3b
       -0.0032072363 -0.002437546 0.0014587614 0.0031193388
0000b0 b7 02 02 3a 82 df 11 bb 9e 0d 18 3b 64 c3 6f bb
       0.0004959511 -0.0022258465 0.0023201476 -0.0036584968
0000c0 6c cc 73 bb 22 11 7f ba 2c 9a 7f 3b e0 7a f9 b9
       -0.0037200702 -0.0009730031 0.0039001806 -0.0004758453
0000d0 a5 1d 8d 3b ac 9f 73 3b 9a 3c 76 bb af c4 87 bb
       0.0043065124 0.003717403 -0.0037572742 -0.0041433196
0000e0 91 78 85 3b b0 37 33 3b ba 72 2f bb b0 5f 8b 3b
       0.0040732105 0.0027346425 -0.0026771263 0.00425335
0000f0 ee 4a 22 3a 9e 54 12 bb ea 42 d0 3a 30 a6 46 3b
       0.0006190975 -0.0022328268 0.0015889083 0.0030311458
000100 06 b8 ba ba 0b 15 6c ba 56 c6 fe 3a a1 9b 02 3a
       -0.0014245517 -0.0009005821 0.0019437771 0.0004982297
000110 e1 ab d3 3a 41 c2 e4 b9 8b 15 8e ba 59 e5 0c ba
       0.0016149246 -0.0004363228 -0.001084016 -0.00053747516
000120 63 a8 41 3a 48 ed 7b 39 be 49 27 ba a9 e7 27 ba
       0.00073874573 0.0002402562 -0.0006381533 -0.00064050645
000130 7b 0c 1c ba c2 ef b4 ba 1d 94 55 3a 34 e3 96 ba
       -0.00059527875 -0.0013804364 0.0008147376 -0.0011511804
000140 d7 03 62 b9 68 26 51 3a f8 f4 32 3a 69 63 cd 39
       -0.0002155447 0.000797844 0.00068266643 0.00039174713
000150 41 cd 66 3a 87 c7 d4 39 0c 0b 35 b9 d5 b8 94 b9
       0.0008804389 0.0004058445 -0.0001726562 -0.0002836647
000160 b0 80 74 b9 0a b0 f6 39 9b 09 13 ba 18 01 7e 3a
       -0.00023317593 0.00047051936 -0.00056090363 0.0009689494
000170 f9 cd 5b 3a 03 cd 95 ba 76 45 9c 37 31 b1 89 ba
       0.00083848793 -0.0011428896 1.8628994e-05 -0.0010505078
000180 c9 40 e6 ba 2f 2d 68 ba 94 f1 1b b9 ec b9 a0 3a
       -0.0017566915 -0.00088568305 -0.00014871947 0.001226244
000190 60 41 c1 39 b6 5c c3 b7 cf 9b 5a 39 12 54 94 b8
       0.00036860537 -2.3288983e-05 0.00020848143 -7.072849e-05
0001a0 4e 53 00 3a 75 e9 8c ba 89 1e ae ba 5c f4 da ba
       0.0004895226 -0.0010750728 -0.0013284247 -0.0016704905
0001b0 9e 76 e9 38 e4 5e f2 3a ee 8c 1a 3a ea ee 0e ba
       0.000111324 0.0018491414 0.0005895634 -0.0005452471
0001c0 0c 56 8d 39 4c fa d4 3a b8 61 84 ba 3a cb 84 b9
       0.00026957726 0.0016248911 -0.0010099923 -0.00025328418
0001d0 42 00 6c ba be c5 e6 ba 22 83 22 b9 35 42 f6 b9
       -0.0009002724 -0.0017606539 -0.00015498375 -0.00046970104
0001e0 00 c0 e2 b4 03 16 1b b9 fc f1 75 b8 01 aa 56 ba
       -4.223548e-07 -0.00014790152 -5.8637917e-05 -0.00081887847
0001f0 cd a0 a8 39 16 48 e5 37 0f 80 85 ba f9 59 87 3a
       0.00032163263 2.7332495e-05 -0.0010185259 0.0010326497
000200 e6 f9 44 bb 96 11 a3 3a 91 27 25 3a 2f fc 07 3b
       -0.0030056178 0.0012441154 0.00063001463 0.0020749678
000210 af 07 82 3b 93 80 4e bb 3f c7 39 3b f0 3f 63 bb
       0.003968201 -0.0031509742 0.002834752 -0.003467556
000220 96 58 41 bb cc 5a 56 3b 37 03 a8 ba 56 ba 15 bb
       -0.0029502264 0.0032707928 -0.0012818341 -0.002284666
000230 49 85 69 3b 66 70 15 bb 21 36 5d bb ed 45 76 3b
       0.0035632423 -0.002280259 -0.0033754187 0.00375783
000240 15 c6 8a ba 83 cf 69 bb 20 12 59 3b ea 07 37 3b
       -0.0010587597 -0.0035676665 0.0033122376 0.00279283
000250 c2 b1 91 3b 34 fd 82 b9 bf 84 5e bb 01 c2 5d 3b
       0.004446239 -0.00024984183 -0.0033953635 0.003383756
000260 0f d3 6c bb 3a 69 37 3b f8 c4 49 3b fa 14 c6 3a
       -0.0036136543 0.0027986304 0.0030787569 0.0015112453
000270 57 d8 75 3b 86 a0 45 3a f4 bf f9 3a 86 29 31 bb
       0.0037512982 0.00075388735 0.0019054399 -0.0027032807
000280 fd 49 0b bb ce ef 23 3b 50 7d fb 3a f6 e9 98 ba
       -0.0021253817 0.002501476 0.0019187126 -0.0011666405
000290 0d 99 80 ba 91 b7 73 3b 52 2b 53 3b 10 7b 78 bb
       -0.0009811238 0.0037188272 0.0032221866 -0.0037915148
0002a0 2d 95 f9 ba 44 29 11 bb 06 e3 79 bb 55 4e 05 bb
       -0.001904165 -0.002214984 -0.0038129701 -0.002034088
0002b0 70 e8 6e bb 6c 40 1c 3b 2c 94 71 39 93 58 8e 3b
       -0.0036454462 0.002384211 0.0002303875 0.004344055
0002c0 ce e4 6b 3b 38 3e 56 bb 48 98 61 3b f1 7b 20 bb
       0.0035994533 -0.0032690894 0.0034423042 -0.0024487937
0002d0 86 a4 68 3b 78 1e 8a bb fe f8 16 bb 16 61 6d bb
       0.0035498454 -0.004215058 -0.0023036595 -0.0036221198
0002e0 ee 85 5e bb 41 9e 28 3b ae fb 34 3b aa ef 29 3b
       -0.003395434 0.0025729092 0.0027615833 0.0025930204
0002f0 52 bb 76 bb 8c 27 1f 3b eb d1 29 3b c2 93 c7 3a
       -0.0037648273 0.0024285046 0.0025912474 0.001522653

transformer.self_attn.out_proj.weight f4 [64, 64]
000000 c2 f4 5b bd d8 4a e4 bd d1 cf c5 bd b8 20 ab bc
       -0.053700216 -0.11147088 -0.096587785 -0.020889625
000010 5d 6c cc bd c4 8d af bd 8f 0c 0f 3d 1d 1e 07 bd
       -0.09981606 -0.085719615 0.034924086 -0.032987703
000020 35 aa b3 bd f7 a8 d6 bd 17 8c 7d bd ef ba f9 bd
       -0.08772699 -0.10481446 -0.06190118 -0.12193858
000030 bf 7a 04 3d 22 73 06 3d 8d fb a9 3c 8a cd c5 3d
       0.032343622 0.032824643 0.020749832 0.09658344
000040 2f 26 89 3d 2c ab b2 3d f0 77 c6 3d 44 ee c7 3d
       0.06696736 0.08724055 0.09690845 0.097622424
000050 bb 9d b4 3c 5f ca d2 bd 22 7a c4 bd 85 f6 ab 3d
       0.022047868 -0.102925055 -0.095936075 0.08396629
000060 6f 43 ed bd 93 1b 22 3d a0 b4 f7 3d 02 a8 13 bd
       -0.115851276 0.039577078 0.12094998 -0.036048897
000070 fc 15 b0 3d c3 5d 2e bc 89 c3 e2 3d f9 2c 15 3d
       0.08597943 -0.010642472 0.110724516 0.036419842
000080 bf 55 51 bd c0 6f 75 3c e8 1e a6 bd 95 6f af bc
       -0.051107164 0.014980257 -0.08111364 -0.021415511
000090 9c e4 b7 bd 74 59 3f bc 00 38 1e 3d a6 62 e2 bd
       -0.08979151 -0.011679042 0.038627625 -0.11053972
0000a0 1e bc 47 bd 1a 9a 1d 3c 0a 1d 13 bd 78 02 9e bd
       -0.048763387 0.00961926 -0.035916366 -0.077153146
0000b0 99 7d 91 bd fa 52 f1 3d be dd e6 bd 9c 76 64 bd
       -0.07104034 0.11783405 -0.11272763 -0.055777177
0000c0 5f 59 1f 3d b7 7a db 3d a0 41 ca 3d 10 39 c1 bd
       0.03890359 0.107167654 0.09875798 -0.09434712
0000d0 cc f6 18 bd 79 9f 05 3c 3f 72 99 bd eb ac a3 bc
       -0.03734474 0.008155697 -0.07492494 -0.019979915
0000e0 3a 22 6c 3d 67 7c 14 bd a7 3a 4a bd 11 77 dc bd
       0.05764983 -0.03625145 -0.04937234 -0.107648976
0000f0 ef fd 4b bd 72 32 1c 3d d7 14 3d 3d 7d f7 01 bd
       -0.049802717 0.038134046 0.046162453 -0.031730164
000100 7f b5 f7 3d e3 31 31 3d 6d 52 01 3e 26 d2 8d bd
       0.120951645 0.043260466 0.12629099 -0.06924848
000110 26 b1 95 bd 0f cf 41 bd 5f d9 a4 bd 5b db d9 bd
       -0.07309179 -0.047316607 -0.08049273 -0.10637542
000120 06 35 fc 3d 31 6a f1 3d 4e 26 ee bd 58 be eb bd
       0.12314801 0.117878325 -0.116284 -0.115109146
000130 02 f1 b4 bb 8b 33 e5 bd 52 97 b0 bd 1f c4 de bd
       -0.0055218944 -0.11191472 -0.08622612 -0.10877251
000140 db 78 aa 3d be b3 cb bd 1c b0 62 bd 0e 87 ae 3d
       0.083238326 -0.099463925 -0.055343732 0.085218534
000150 e0 0a 1f bb af 12 bc 3d bc 1e fd 3a e6 23 ac bd
       -0.0024267957 0.09183251 0.0019311528 -0.084052846
000160 7f 33 32 3b 24 34 c0 bc db c4 a0 3d 99 49 b9 bc
       0.0027191339 -0.023462363 0.07850047 -0.022618102
000170 38 44 6e 3d d8 5b 6d bd 75 af 95 bd b5 60 28 3d
       0.058170527 -0.057948917 -0.073088564 0.041107852
000180 f4 68 bd bd 24 a2 43 3d 4c 68 b2 bd ce 69 d7 3d
       -0.09248534 0.04776205 -0.08711299 0.105182275
000190 d6 3b 3e 3d b4 e2 dd 3d ad f2 c7 3d 9c 26 b7 bc
       0.046443783 0.10834256 0.097630836 -0.022357278
0001a0 19 be 7f 3c 68 04 d4 3d 1f e7 51 bd 65 00 bf bd
       0.015609288 0.10352403 -0.051245805 -0.09326247
0001b0 5e fe 36 3d 2b dc 62 bc 67 44 7d 3d e4 bd da bd
       0.044676177 -0.013846437 0.06183281 -0.1068075
0001c0 c6 e5 98 bd 29 b9 6d 3c 9c 4f 46 bd 5b c1 78 bd
       -0.07465701 0.014509478 -0.048415765 -0.060731273
0001d0 51 90 e6 bd 59 7e 3c 3d 1a c4 93 bd 66 bf d4 3c
       -0.11257995 0.046018932 -0.07215138 0.025970172
0001e0 74 76 d8 3d ff 5a 94 3d e6 3a c3 3d 3e 35 ba bd
       0.10569468 0.07243919 0.09532718 -0.090921864
0001f0 40 65 ce 3d 0a 7b 67 bd 0d 7a df bd f4 bb 7e 3d
       0.10077906 -0.056513824 -0.10911951 0.062190965
000200 f1 6c 9d bd 64 5f f7 bd 93 27 91 bc 58 8b 04 bd
       -0.076867945 -0.12078741 -0.017719066 -0.03235945
000210 b1 21 e8 bd 56 f6 e1 bd 1c 1e a1 3b a9 eb de bd
       -0.11334551 -0.11033313 0.0049169194 -0.10884792
000220 88 f4 3e bc 5b 23 5c bd c0 15 da bc 2f 6b 26 bc
       -0.0116549805 -0.053744655 -0.0266217 -0.0101573905
000230 ff dc e9 bc 33 76 ac 3d cb da d7 3d 9c 2d c0 bd
       -0.028547762 0.08420982 0.10539778 -0.09383699
000240 08 51 99 3d ad aa f1 3d 72 41 2a bd 0c b3 98 3d
       0.074861586 0.11800132 -0.04156632 0.074560255
000250 80 35 86 3d b3 f5 de bc d8 24 f5 3d 18 aa 01 3e
       0.06553173 -0.027216768 0.11969918 0.12662542
000260 cf 95 d1 bd e4 07 ce 3c 27 b0 9a 3d 3d b8 da 3d
       -0.10233652 0.025150247 0.0755313 0.10679672
000270 42 6e 8b bd ef 1b bd 3d ae 9f 3f bc 36 06 0a bd
       -0.068081394 0.092338435 -0.011695785 -0.03369733
000280 00 55 49 3d 48 6b a8 3d 3f 25 93 3d ea 78 40 bd
       0.049153328 0.08223587 0.071848385 -0.046990313
000290 5b 4e db 3d d1 b6 a6 bd 84 91 c8 bc 44 32 ab 3d
       0.107083045 -0.08140338 -0.02448345 0.08359197
0002a0 36 07 a7 3d 59 26 df bd f6 6f a1 bd 59 ec eb bc
       0.08155672 -0.10895986 -0.07882683 -0.028799223
0002b0 b9 b4 07 3d 2d c0 c9 3d 35 dd cb bd e6 9e c7 bd
       0.033131335 0.09851108 -0.09954301 -0.09747104
0002c0 05 b1 dd bd 6e 83 a5 bd d6 6f 64 bd ee 2a df bd
       -0.108247794 -0.08081709 -0.055770718 -0.1089686
0002d0 c6 50 86 bd 0c d1 4f 3d b0 0c 91 3d c4 1a d9 bd
       -0.06558375 0.050736472 0.07082498 -0.10600808
0002e0 92 c2 7b bd 0d 08 ff bc fa 34 ad 3c f6 6d d8 bd
       -0.061464854 -0.031131769 0.021143425 -0.105678484
0002f0 98 ac e8 3b 5b 3f 0f 3d 06 f2 30 3d d6 1c df 3d
       0.007100653 0.03497253 0.04319956 0.10894172
000300 84 37 d3 bd 93 19 76 3d 20 6b 82 bd 67 64 44 3c
       -0.10313323 0.060082983 -0.06368089 0.011986828
000310 a2 f2 08 3d a6 e3 b9 3d fc 5d 22 bd e5 43 8a 3d
       0.033434518 0.090766236 -0.03964041 0.06751231
000320 b0 8d c5 3d 18 64 ab bd 28 e7 a7 3d 8a cb 04 3d
       0.09646165 -0.08368701 0.081983864 0.032420672
000330 30 b2 b8 bd 68 dc 98 3d 98 78 0d bd b1 c4 a5 3d
       -0.090183616 0.07463914 -0.034538835 0.080941565
000340 86 86 c7 3d 6b b4 b9 bc 34 d3 e0 3d a8 67 00 bc
       0.09742455 -0.022669038 0.10977784 -0.007837214
000350 3b dc d6 bd 18 2d 32 3d 77 d8 56 3d 85 a1 f1 bd
       -0.104912244 0.043500036 0.05245253 -0.117983855
000360 30 74 29 bb 39 6e 6d bd 23 d3 40 bd fc 6f 04 3c
       -0.0025856607 -0.057966445 -0.047076356 0.00808334
000370 fa 4f 37 3d d9 17 c6 bd 8a 11 90 3d 77 8e bd 3d
       0.044754006 -0.09672517 0.07034595 0.09255689
000380 e0 4e b3 3d 73 de a1 3d ea 7a 33 3d fa 69 9d bd
       0.087552786 0.07903757 0.04381839 -0.07686229
000390 a4 82 97 bc 8c f1 d8 3d d8 31 4f 3d ef 76 14 3c
       -0.018494911 0.105929464 0.050584644 0.009061559
0003a0 b2 46 c3 bc f8 db 92 bd a1 03 ae bd 3b ad d9 bd
       -0.023837421 -0.07170862 -0.08496786 -0.10628744
0003b0 f4 ee 8e 3d 7d dd a2 3d 69 7f ca bd f7 61 73 bd
       0.069791704 0.07952402 -0.09887583 -0.0594196
0003c0 3e 5c 2b bd 50 24 e6 bd 15 5c de bd f1 67 48 3d
       -0.041836016 -0.11237395 -0.10857407 0.04892725
0003d0 09 ba f3 bb a1 a1 52 bc 1e 72 c5 3d 4e fa 2f bd
       -0.0074379486 -0.012855918 0.09640907 -0.04296332
0003e0 49 f8 ba 3d de 8a d9 bb 19 00 0d bd 65 c2 2f 3b
       0.09129388 -0.0066388687 -0.03442392 0.002681875
0003f0 4e 2e 3e 3c a0 9f a5 bd 7b 1d f1 3d a1 a7 00 bd
       0.01160772 -0.08087087 0.11773201 -0.031409863

transformer.self_attn.out_proj.bias f4 [64]
000000 4c 6b 45 3b 7b b7 6d 3b de 15 68 bb 5a 8c 30 bb
       0.0030123768 0.0036272693 -0.0035413424 -0.0026939125
000010 1e 05 5f bb 5e 2f 75 bb 6e 00 67 3a fd 13 56 bb
       -0.003403015 -0.0037412266 0.0008812015 -0.0032665723
000020 c0 25 5c 3b 63 15 56 3b e6 32 34 bb 27 08 95 3b
       0.0033591837 0.0032666556 -0.0027496158 0.004548091
000030 78 92 79 3b dd 31 79 bb 88 20 87 bb 18 31 00 b7
       0.0038081687 -0.0038024106 -0.004123751 -7.640825e-06
000040 bf 77 8a bb 24 e6 33 bb ad 33 4b bb e0 85 82 39
       -0.0042257006 -0.0027450407 -0.0031006143 0.00024895277
000050 47 df 62 3b fe 57 66 bb ea 8d 0c 3b da 7b 6a bb
       0.0034617947 -0.0035147662 0.0021446892 -0.0035779388
000060 5d 1a 8c 3b 32 85 57 3b 14 0a 0e b9 d5 69 5e bb
       0.0042756037 0.0032885787 -0.0001354593 -0.0033937593
000070 4b d3 4f 3b 1d c6 f0 39 43 a3 53 bb 86 3c 0f bb
       0.0031711634 0.00045923973 -0.0032293356 -0.0021856143
000080 c2 e6 8e 3b 68 ce ae ba b6 ca 2d 3b b9 09 d7 3a
       0.0043610046 -0.001333666 0.002651853 0.0016406096
000090 b8 28 83 bb ae 0c 57 3b 0b 33 52 ba 95 e5 6d 3b
       -0.004002657 0.0032813954 -0.000801847 0.0036300172
0000a0 36 db 0c 3b db 6c 54 3b d2 34 d3 ba b3 b8 40 bb
       0.0021492965 0.0032413516 -0.0016113764 -0.0029406964
0000b0 8a 21 6c bb 34 47 48 3b 53 8f 93 3a 23 e6 7d bb
       -0.0036030733 0.0030560018 0.0011257924 -0.0038741909
0000c0 39 cf 08 3b ca c3 6c 3b 1f 34 92 3b c8 00 5a bb
       0.0020875467 0.0036127442 0.0044617797 -0.0033264626
0000d0 2a 10 1c 3b be 15 2f 39 08 7c 64 bb b7 6d 7d 3b
       0.0023813345 0.000166974 -0.0034863967 0.0038670131
0000e0 d5 04 6c bb 98 43 4e 3b 06 e3 80 bb 38 47 95 bb
       -0.0036013622 0.0031473394 -0.0039333133 -0.004555609
0000f0 63 b4 69 bb 19 18 0c bb 52 1c 51 bb ba 3a 61 bb
       -0.0035660497 -0.0021376668 -0.003190775 -0.003436728
