checkpoints/epoch=0-step=5.ckpt (torch, 715136 bytes, 69 tensors)

seq_conv.weight f4 [64, 4, 15]
000000 9f 9a c8 3d 77 d7 49 bd 8c 92 47 bd c8 fd 4f bd
       0.09795117 -0.04927775 -0.048723742 -0.050779134
000010 43 62 3c 3d 5e 94 7e 3c 9c 06 05 be 9e c0 e0 3d
       0.045992147 0.015538303 -0.12990803 0.10974239
000020 74 80 d7 bd 7e 49 b2 3d 0d 9c ec 3d 74 27 70 bd
       -0.10522547 0.08705424 0.11553202 -0.058631375
000030 3a ed d2 3d 6a 76 92 3d f2 da cc bd eb 17 03 be
       0.102991536 0.07151492 -0.10002698 -0.12802093
000040 99 4f c2 bd 36 80 f0 3c 32 b6 02 be a0 2a 46 3c
       -0.09487838 0.02935801 -0.12764814 0.0120951235
000050 24 1a 1e bd 70 5a a5 3d dd ba 9b 3d 9d d1 45 bd
       -0.03859915 0.0807389 0.07604001 -0.048295606
000060 a2 26 98 bd c7 db 35 3d 41 b9 fc 3c b9 79 1c bc
       -0.074292436 0.04439905 0.030850055 -0.009550505
000070 cc a3 39 3d a2 39 4c bd 63 c7 23 bd e4 bb f4 bc
       0.045322224 -0.04985965 -0.039985072 -0.02987475
000080 26 07 bd bd 31 ca e3 bd 0b 8b b8 3d 19 25 e4 3d
       -0.09229879 -0.11122549 0.09010895 0.11139888
000090 33 61 79 3d fe fe 05 bd 86 6f 9f 3d da 2e 06 be
       0.060883712 -0.032713883 0.07784943 -0.1310381
0000a0 d2 04 da bc d6 17 f0 bb 1e 61 be bb 70 d4 d1 bd
       -0.026613627 -0.00732706 -0.005809917 -0.10245597
0000b0 be f6 9f 3d 47 07 cf bd 71 0c 59 3d f1 43 4d 3d
       0.07810734 -0.1010881 0.05299038 0.050113622
0000c0 54 a0 98 3d d2 22 d2 bc 38 8e 01 bd fd 6f 74 bb
       0.07452455 -0.02565137 -0.03162977 -0.0037298196
0000d0 b7 e5 cc 3c 38 95 f8 3d fb d7 98 bd 8d f3 92 3c
       0.02501188 0.12137836 -0.0746307 0.0179384
0000e0 91 c3 3b bd 54 fb 42 3d 50 fb d2 3b 0b 8e fe bd
       -0.045840804 0.047602966 0.00643865 -0.12429436
0000f0 86 f8 de 3d b3 94 f0 bd 04 66 e3 3d c7 63 01 3e
       0.10887246 -0.11747112 0.11103442 0.12635718
000100 df 40 ec bd 88 1d f2 bd 34 18 f3 3d 3f 32 84 bd
       -0.11535811 -0.11822039 0.11869851 -0.06454896
000110 92 ad 01 3e 9a 88 d1 bd 3c 70 e3 bd 25 e7 81 bd
       0.12663868 -0.10231133 -0.111053914 -0.063429154
000120 d1 b9 cd 3c 4e 33 40 3d d7 a4 86 bd a2 9b 04 be
       0.025113018 0.046923928 -0.065744095 -0.12949994
000130 73 9f 03 3d ab 19 86 3d 0e b3 6e 3c e2 df 21 3c
       0.032134484 0.065478645 0.014569057 0.009880038
000140 fd 5a 5c bd ce 5b 98 3c 23 f3 a8 bd 3a 06 b0 bc
       -0.05379771 0.018598463 -0.082495 -0.021487344
000150 cb e5 a5 bd a8 0f d8 bd a2 52 09 3c 74 da 60 bd
       -0.0810047 -0.10549861 0.008381518 -0.054895833
000160 89 f2 9e 3d 24 e5 a7 3d a2 72 80 bd 06 38 fc bd
       0.07761104 0.08198002 -0.062718645 -0.12315373
000170 c5 b9 bb bd 26 37 95 3d 76 83 20 bb b4 67 00 3e
       -0.09166292 0.07285909 -0.002449242 0.1253956
000180 85 c2 2b bd ce ab de 3d 42 4a 9e bc 56 82 1f bd
       -0.041933555 0.10872613 -0.019322518 -0.038942657
000190 84 9f ca 3d 45 43 ab 3c 32 bb b5 bb 51 d7 85 bd
       0.098937064 0.0209061 -0.005545997 -0.06535209
0001a0 29 47 e5 3d db 65 4e bd ea 0a 3e bd 0d 8b 8b 3d
       0.11195213 -0.050390106 -0.046397127 0.06813631
0001b0 06 c4 13 3d 62 2f c7 3d f7 49 93 3d 93 e2 03 be
       0.036075614 0.097258344 0.07191842 -0.128794
0001c0 56 ef 2b 3d c8 b9 23 3d 1b 46 04 3e 6c 87 c8 bd
       0.041976295 0.039972097 0.12917368 -0.09791455
0001d0 f7 e3 be 3d cc 45 e7 bc e6 c2 fb bd 89 c6 3f 3d
       0.093208246 -0.028231524 -0.12293033 0.046820197
0001e0 dd 5d b6 bd b1 4f bb bd 2b 28 b7 bb 2b 42 83 bd
       -0.08904622 -0.09146059 -0.005589505 -0.06409105
0001f0 67 1c 89 3c 18 f7 f0 3d 9b 5c a8 bc de 35 45 bd
       0.016737176 0.117658794 -0.02055197 -0.048147075
000200 a9 e1 3c 3d 45 3c 6d 3b a5 e6 c0 bd 3b de 01 3e
       0.046113644 0.0036199254 -0.09418992 0.1268243
000210 d8 26 ef 3d fa 3b 29 bd 60 12 dc bd df 17 6b bd
       0.11677331 -0.041316964 -0.10745692 -0.057395812
000220 6e da 53 bd 8f 67 b1 bc b6 38 ac bd 32 69 91 bd
       -0.051721983 -0.021655826 -0.08409254 -0.071001425
000230 ee ce fa 3d eb 5a 40 3d c4 b5 94 bd 3f fb 9b bc
       0.122465 0.046961706 -0.072612315 -0.019040702
000240 6a 3d f3 3d 4d 8f ca 3d 94 e7 dd bd 05 14 87 bd
       0.11876948 0.09890614 -0.10835186 -0.06595615
000250 7c c4 d8 bd c8 dd 84 3d 79 19 dd bc f0 fa 87 bd
       -0.105843514 0.06487614 -0.026989685 -0.066396594
000260 1a 72 7d 3d ca e3 bb 3d c5 ac aa bc 21 fb 97 bd
       0.061876394 0.09174307 -0.020834336 -0.07420946
000270 e8 60 85 bd 21 f4 c6 3d bb 88 32 bc fb 26 c6 bd
       -0.06512624 0.09714533 -0.010896857 -0.09675404
000280 4a b0 aa 3d 3c 4b 8c 3d 54 5b aa 3d 27 30 25 3c
       0.08334406 0.06850287 0.08318201 0.010082281
000290 27 9a f8 bd 15 50 b8 bd 47 f8 9b 3c 05 fc f9 3d
       -0.12138777 -0.089996494 0.019039286 0.12206272
0002a0 64 cf 30 bd 6c 31 c8 3c 91 a0 e5 bd 14 9f aa 3d
       -0.043166533 0.024437629 -0.11212266 0.08331123
0002b0 42 b6 cf bd d8 e6 03 bd 02 4b a9 bd 5a a2 59 bd
       -0.10142185 -0.03220257 -0.0826626 -0.053133346
0002c0 d5 b0 bd 3d 55 f5 f0 bd d9 10 43 3b 6a 66 e5 bd
       0.09262244 -0.11765543 0.002976468 -0.112011746
0002d0 0a 32 fe 3c 9a 81 94 3d 02 03 b5 bd 29 67 a7 bd
       0.03102972 0.07251282 -0.08838464 -0.08173973
0002e0 a7 59 07 3e b2 82 39 bd 23 c4 e7 3d d6 e7 e4 bc
       0.13217793 -0.045290656 0.11316707 -0.02794258
0002f0 77 85 5d 3d a8 ea 1d 3c 8e 3a 8b 3d e8 c7 80 bd
       0.05408236 0.009638466 0.06798278 -0.06288129
000300 c0 86 04 3e 73 14 63 3d b8 83 d9 bd 1d fa cf bd
       0.12942028 0.055439424 -0.106208265 -0.10155127
000310 27 19 f7 bd 81 27 8c 3c 89 dd ee 3d 1c 17 df 3d
       -0.12065344 0.01710868 0.11663348 0.1089308
000320 84 1e 76 bd 33 01 38 3c fc b1 38 bd f4 71 77 bd
       -0.060087696 0.011230755 -0.045091614 -0.06041141
000330 40 9d b5 3d 8a 7e ed 3d 22 3f c3 bd 14 b2 cd bd
       0.08867884 0.11596401 -0.09533526 -0.10043731
000340 62 e3 3f bd 62 49 3c bc ea e6 8b 3d 44 1e fe 3c
       -0.04684771 -0.011492105 0.06831153 0.031020291
000350 10 0e 92 bd c8 40 4e 3c ba 95 51 bd 84 5a 8a bd
       -0.071315885 0.012588687 -0.05116818 -0.06755546
000360 67 67 9c bd 7c bc 1a 3d 6f 0f d6 bd 45 7a 86 bd
       -0.0763691 0.03777741 -0.104521625 -0.0656629
000370 6e bb bb 3d c4 41 eb bd bf 29 4b bd 30 98 e1 3d
       0.09166609 -0.11487153 -0.04960036 0.110153556
000380 e8 c9 c1 3d 21 cf 91 3c 8f 18 08 bd 80 d4 1f 3c
       0.09462339 0.017798962 -0.033226546 0.009755254
000390 5c a6 fd 3d 20 26 cb bc 14 bd 7a bd 91 09 a8 3d
       0.12385246 -0.024798453 -0.061215475 0.0820495
0003a0 7f 8c f9 bd e5 a8 23 3b 6c 8d a1 bd d8 17 c0 3d
       -0.12185001 0.0024972495 -0.07888302 0.09379548
0003b0 81 b3 d9 3d 90 3f c3 3d bb 68 c2 bd 74 f2 ba bd
       0.10629941 0.09533608 -0.09492632 -0.091282755
0003c0 09 e0 b7 3c 69 13 de bc 3b 48 d4 bd 6c 62 97 bd
       0.022445695 -0.027108865 -0.10365339 -0.07391819
0003d0 e8 ac 76 bd 9a 47 f2 3d aa 12 1e bd db 1d 4b bd
       -0.06022349 0.11830063 -0.03859202 -0.04958902
0003e0 ca 8d ca bd 12 24 38 bd 3b d2 88 3d 89 79 8b 3d
       -0.09890325 -0.044956274 0.06680723 0.0681029
0003f0 2b b1 40 bd 5a 14 69 3b f8 b8 f1 3d 36 b0 e3 3d
       -0.04704396 0.003556511 0.11802858 0.11117594

seq_conv.bias f4 [64]
000000 78 9f e6 bc 5f a9 04 3e aa 7b de 3d 8a b8 bc bd
       -0.028152213 0.12955235 0.10863431 -0.092148855
000010 e8 68 c2 bd c3 37 75 bc 9e eb 95 3c d0 66 43 bd
       -0.094926655 -0.014966908 0.018300828 -0.04770547
000020 8f 65 c5 3c 70 a1 ae 3d b8 7b 36 bc f3 bd a8 3d
       0.024096278 0.085268855 -0.011137895 0.08239355
000030 fd 10 0f 3d 89 9c e6 bd 1d ff 12 3d 85 6c a0 3d
       0.03492831 -0.112603255 0.035887826 0.078331985
000040 db 25 ba bd f9 13 cf 3d d5 d1 90 3d e7 6a 95 bd
       -0.090892516 0.10111231 0.07071272 -0.07295781
000050 85 cc 3c bb 70 f0 8c 3c ab 50 96 bd 53 94 b5 3b
       -0.0028808427 0.017204493 -0.07339605 0.0055413633
000060 47 94 fd 3d c8 30 11 bd 56 ea d3 3d 7b d7 98 bc
       0.12381797 -0.035446912 0.103474304 -0.018657437
000070 c0 ae bd 3d 4d 9a 46 bd 40 77 ab 3d 7f 22 d1 bd
       0.092618465 -0.048486996 0.083723545 -0.10211658
000080 cf 58 37 bc 0e d5 00 be 39 88 af bc dd 26 9d bd
       -0.011190607 -0.12581274 -0.02142726 -0.07673428
000090 8c 25 d5 3c 42 0e 5a bd fa d5 c9 bc a4 5c 23 bd
       0.02601888 -0.053236254 -0.024638165 -0.03988327
0000a0 67 b1 e6 bd 7a 0b d6 bc ac 6a ec 3d ae 4c ad 3d
       -0.112643056 -0.02612852 0.115437835 0.08461891
0000b0 e0 da dc 3d cf 31 33 bd 48 ad b7 bb f9 ec 01 be
       0.107839346 -0.043748673 -0.0056053735 -0.12688054
0000c0 38 ef 98 3d 7e d5 6c bc e6 8a 37 3c c9 92 80 bc
       0.07467502 -0.014455197 0.01120255 -0.015694993
0000d0 f0 7f 73 bd 35 48 15 bd 7c ca c5 3d a6 56 e3 3d
       -0.059448183 -0.036445815 0.096577615 0.11100511
0000e0 23 5f 35 3c 84 11 dd 3b bd 5e aa 3d f2 5a ae 3d
       0.011070046 0.006746473 0.08318851 0.0851344
0000f0 c1 bb b8 3d a5 39 a3 bd 19 08 dc bd a7 73 e3 bd
       0.09020186 -0.07969979 -0.10743732 -0.11106043

atac_conv.weight f4 [16, 1, 15]
000000 52 4c 94 3c 8b 52 a1 3b a0 d4 ab bc 2d e0 3e 3c
       0.018102799 0.00492317 -0.020975411 0.011650127
000010 be 8c 54 3d 8e 46 78 bb 9e 98 37 3e 3b 12 86 bd
       0.051892035 -0.003788385 0.17929313 -0.06546446
000020 38 d6 3b be d0 1a 3a 3e 2e 85 7b bb e6 7c 1d be
       -0.18343437 0.1817429 -0.0038378942 -0.15379676
000030 32 b3 f1 3d 0e 57 79 3e 05 d7 1c 3d 3a 06 65 3e
       0.11801757 0.24349615 0.038290996 0.22365656
000040 c1 75 aa bd 40 69 72 3e 3e 22 37 bd ff b9 32 be
       -0.08323241 0.23672962 -0.04471039 -0.17453764
000050 08 b0 6e bd 60 50 04 3e 73 ff 63 3c 20 48 83 3e
       -0.058273345 0.12921286 0.013915884 0.25640965
000060 00 c6 51 3e 0c 0e 4d be 2d 02 fe bc 22 68 cf 3d
       0.20485687 -0.2002489 -0.031006897 0.10127284
000070 db 98 80 3e 9a 11 2d be 79 29 6e 3e 45 98 77 3e
       0.2511662 -0.16901246 0.23258008 0.2417918
000080 69 26 f6 bd 58 72 93 3d f4 b7 fa 3d 75 72 33 3e
       -0.12019045 0.07199544 0.122421175 0.1752413
000090 8a 6f 73 3e 54 d6 52 3b 77 ac 1b 3d 34 0d 24 3e
       0.23773018 0.0032171207 0.038006272 0.16020662
0000a0 1e f9 28 be 0a 4a 0b 3d b1 5b 7d be 2f df 42 be
       -0.1650128 0.034006156 -0.24742009 -0.1903045
0000b0 3d a5 1d be 6c a8 38 be b5 49 d7 3d 51 4f 56 be
       -0.15395065 -0.18032998 0.105121054 -0.20928694
0000c0 b3 a1 96 bd 21 57 2c be 7a 63 13 3e 89 4b c5 3d
       -0.073550604 -0.16830112 0.14393416 0.09633548
0000d0 51 68 cc bc a2 f4 3d be d8 ee 0b be 2c 7f 20 3e
       -0.024952086 -0.18550351 -0.1366533 0.15673512
0000e0 24 c8 1c 3e cb a8 08 be 23 03 df bd 96 75 52 3e
       0.15310723 -0.1334564 -0.1088927 0.20552668
0000f0 b6 a0 d0 3d 8a 61 63 3e 2f ad 4d be 97 9e 63 be
       0.10186903 0.22205177 -0.20085596 -0.22228466
000100 0c 46 b0 bd a8 0d 20 be 50 f4 40 be c6 0e 17 3c
       -0.086071104 -0.1563021 -0.18843198 0.009219831
000110 b2 90 03 be ad 6d d4 3d ea 1c ef 3d f3 e4 76 be
       -0.12848166 0.103724815 0.11675437 -0.24110775
000120 19 51 12 be 88 c9 20 be 36 45 02 be 61 7e 6e 3d
       -0.14288749 -0.15701878 -0.12721714 0.058225993
000130 4a 18 4d be b3 e1 08 be 7d 88 2f 3e 6c e7 81 be
       -0.20028797 -0.13367347 0.1714191 -0.25371873
000140 8e e0 85 bd 25 0b 12 3e 31 93 36 3e 78 40 76 be
       -0.06536971 0.14262064 0.17829587 -0.2404803
000150 18 b8 d6 3c 6c 26 4f 3e e4 0a 84 be a9 80 f9 3d
       0.02621083 0.202295 -0.2578956 0.12182743
000160 98 29 9e bb 43 77 39 be fe 0a b5 bd 2d 7d 63 bc
       -0.0048267357 -0.18111901 -0.08839987 -0.013884825
000170 32 12 3c 3e 03 55 2f 3e 70 9d f1 3d 8e 64 cc bd
       0.18366316 0.17122273 0.11797607 -0.09980117
000180 c6 cf 6e 3e 8e 77 4b bd 17 ad 10 be bb 16 73 be
       0.23321447 -0.049674563 -0.14128529 -0.2373914
000190 1f 9d 2d be d8 6e 85 3d 0d bb 98 bc d7 dc 70 bd
       -0.16954468 0.065152824 -0.01864388 -0.05880436
0001a0 7b 6a 28 3e 93 80 6f 3e 70 05 82 3e b5 0f 6e be
       0.16446869 0.23388891 0.25394773 -0.2324818
0001b0 01 84 ef bd 19 f3 9c bc 19 c5 37 be 00 9c 51 be
       -0.116950996 -0.019158887 -0.1794628 -0.20469666
0001c0 28 df 02 3e d9 0c a2 bd 92 0d 7d bd 0c 4c 4b 3e
       0.1278044 -0.07912607 -0.06178052 0.19853228
0001d0 92 44 04 be 95 27 26 3e 0b fa 2d be 34 a7 1d bd
       -0.12916782 0.16226037 -0.16989915 -0.038489535
0001e0 42 fd 96 3c 48 5c 1c be 4e 58 aa 3c 6b 4c 6c 3e
       0.01843131 -0.15269578 0.02079406 0.23076026
0001f0 b1 40 08 3e e6 75 ef 3d 9c 7a 6d 3d be 87 44 3e
       0.13305928 0.11692409 0.057978258 0.19192407
000200 36 2c 68 be bd bb 2b be ff ec 22 3e df 3f 53 3e
       -0.22673115 -0.16770835 0.1591072 0.20629834
000210 3b c0 61 be 9a 5e 7b 3e 1c 73 b6 3d a0 6a 2e bd
       -0.22045986 0.24547806 0.08908674 -0.042582154
000220 5a 65 b3 3c 65 76 4f 3e 7c f9 a6 3d b2 ab 6b 3d
       0.021898914 0.20260008 0.08153054 0.05753679
000230 0a cc 0b bd 89 18 3b be c9 44 5b 3d 00 eb ad bd
       -0.034130134 -0.18271078 0.053532396 -0.08492088
000240 4c ae 56 be d7 2b 9f 3d ee fe 25 3e 99 a4 0d 3d
       -0.20964926 0.07772034 0.16210529 0.0345808
000250 2b ad 07 bd f8 b6 33 bd db e5 ea 3c fa 87 84 be
       -0.03312413 -0.043875664 0.028674057 -0.25884992
000260 ff 73 2a be a9 d3 69 3e e7 db 77 3e 2a 49 3c be
       -0.16645811 0.22834648 0.2420498 -0.18387285
000270 02 01 75 be c9 3e 04 be 59 b1 2c 3e f1 35 1d 3e
       -0.23926166 -0.12914576 0.16864528 0.15352608
000280 d4 fe ec bd a8 52 6e be 4c 5b 62 be 6a a9 2f 3e
       -0.11572042 -0.23273718 -0.2210514 0.1715447
000290 c6 b6 9a 3d 85 72 af bd 66 20 b6 bc 3f e3 8d 3a
       0.075543925 -0.08566765 -0.022232246 0.0010825171
0002a0 83 38 1d 3d 83 2e 07 be 0f 1e 88 bd d1 81 88 bd
       0.038383972 -0.13201337 -0.06646358 -0.066653855
0002b0 07 fd 38 3e 12 b5 52 3e c1 79 9c bc fd 6b 66 be
       0.18065272 0.20576885 -0.019101026 -0.22502132
0002c0 f3 fd 01 be 7a 75 0c be a9 a8 97 bd b3 2f 37 bd
       -0.1269453 -0.13716689 -0.07405216 -0.044723224
0002d0 05 03 78 be 8a da 40 be 26 e5 d0 bb 0b b7 51 bd
       -0.24219902 -0.18833366 -0.006374973 -0.051199954
0002e0 f3 81 49 3e e8 c1 14 be 8e 02 69 3e 4d b0 df bd
       0.19678478 -0.14527094 0.22754881 -0.109222986
0002f0 27 06 80 3d fb 1b 13 3e b1 8b d7 bd 26 8a 77 be
       0.062511735 0.14366142 -0.10524691 -0.24173793
000300 4c a9 4d 3e 31 a8 91 3d 3f 01 36 be 46 18 83 3e
       0.20084113 0.07112158 -0.17773913 0.25604457
000310 ca 5d 33 3e d9 92 2a be 59 c5 70 be 90 39 a6 3d
       0.17516246 -0.1665758 -0.23512782 0.08116448
000320 af 1b 9c bd 47 6d fd bc 9e 59 d0 bd 67 f2 9a 3d
       -0.07622468 -0.030935897 -0.10173343 0.07565766
000330 de b2 b9 3d 1f a5 0d 3e 12 e7 6e 3e ef 33 cb 3d
       0.09067319 0.1383252 0.23330334 0.09922015
000340 d7 4d f6 3d cd d0 f5 bd 0d 2d aa 3c 97 4e fa bd
       0.120265655 -0.12002716 0.020773435 -0.12222021
000350 1e ce 52 be 3f c1 bd bc de 16 df bb 1f 45 e3 bc
       -0.2058644 -0.023163436 -0.006808146 -0.02774292
000360 fa dd 81 be 19 45 37 3e 2c 03 84 be e8 05 70 bd
       -0.25364667 0.17897452 -0.2578367 -0.058599383
000370 34 02 16 bc 4b 42 1a 3e cc ce 03 be 98 23 79 3e
       -0.009155799 0.15064351 -0.12871855 0.24329984
000380 d0 7d 45 be f0 7d 00 3e 0f 74 59 be 3b fe 14 3d
       -0.19286275 0.12548041 -0.21235679 0.036375266
000390 f3 13 14 3e 74 28 60 3e 71 42 22 3c aa 21 98 bb
       0.14460735 0.21890432 0.009903536 -0.004642685
0003a0 d4 e8 1d bc 3b fa be 3d 6e b2 6b be 97 dc 88 bd
       -0.00963803 0.093250714 -0.23017284 -0.06682699
0003b0 35 08 80 bc 63 06 24 3e 6d b1 f0 bd 87 33 6d 3d
       -0.015628913 0.16018061 -0.11752591 0.05791047

atac_conv.bias f4 [16]
000000 23 01 65 3e ff 6b d8 3d 07 2c c1 bc 32 ef 10 3e
       0.22363715 0.105674736 -0.023580564 0.14153746
000010 d3 1d 54 3e e3 23 1f be 8a ed 82 3e 7b ed 62 bd
       0.20714502 -0.15541033 0.25571853 -0.05540226
000020 12 36 20 be 1b 76 4a 3e cf 17 45 3e db 71 3c 3e
       -0.15645626 0.19771616 0.19247364 0.18402807
000030 1a d4 64 be 27 d5 4c be 90 22 b8 bc 95 d5 54 bc
       -0.22346535 -0.20003186 -0.022477418 -0.012990375

motif_fc.weight f4 [16, 693]
000000 90 74 69 bc b7 5c f2 3b ee 02 06 3d b5 53 75 bb
       -0.014248982 0.0073963064 0.032717638 -0.0037433926
000010 69 48 28 bc 07 7a 08 bb 66 77 06 bd 1c 56 b5 bc
       -0.01027117 -0.0020824687 -0.03282871 -0.022135787
000020 84 e3 be bb 9b 56 99 3c 49 89 0d 3c 4e b1 f7 3b
       -0.005825462 0.018718055 0.008638688 0.007558978
000030 fe 7f cd 3c 03 9f c9 3c df ae cb bc 37 ad 09 bd
       0.025085445 0.024611956 -0.024863658 -0.033612456
000040 cc 22 e0 bc 7d 3a 9d bc 41 14 ba 3c ae e9 df 3c
       -0.027360342 -0.019192928 0.022714736 0.027333107
000050 e5 c9 71 3b 90 1f cd bc 0c 38 e8 3c 68 2e 65 3a
       0.003689402 -0.025039464 0.028347038 0.0008742572
000060 12 95 ea bc a9 24 d1 bc 83 e6 48 ba e3 d0 de bc
       -0.028635535 -0.025530176 -0.00076637435 -0.027199214
000070 0d 67 ea 3c eb 2c f6 3c 80 4e 56 bb 86 e1 6d bc
       0.028613592 0.030050715 -0.0032700598 -0.014519101
000080 2c b7 b9 bc 63 23 a6 bb 16 e0 cc 3c 20 0e 4f bc
       -0.022670351 -0.0050701364 0.025009196 -0.012637645
000090 c7 16 d1 bb 12 4e 9b bc fb 2b 0c 3d e6 3d 13 3d
       -0.006380889 -0.018958125 0.03422163 0.035947703
0000a0 a0 e0 ba bc a3 86 e3 bc 6e 00 08 3d a0 27 b8 bb
       -0.022812188 -0.02777416 0.033203535 -0.005619958
0000b0 88 32 d2 3c 5d 93 08 3c df 3c 6d bb 92 94 c9 bc
       0.02565886 0.008335915 -0.0036199612 -0.024606977
0000c0 33 d4 06 3d ac 17 10 3d 1e 40 e8 3c 8b 32 52 3c
       0.032917213 0.035178825 0.028350886 0.012829433
0000d0 29 28 15 3c 9e 2f c6 bc 92 79 04 3d 57 06 b3 b9
       0.009103813 -0.024192628 0.0323425 -0.00034146264
0000e0 2b d3 7e 3b c0 8e e3 bc c1 c9 a6 bc a2 db 95 bc
       0.003888319 -0.02777803 -0.020359876 -0.018293206
0000f0 5a 14 03 bd 89 04 70 3b ae 58 b7 3b 69 0e 64 3c
       -0.03200183 0.0036623797 0.0055952882 0.013919451
000100 a2 04 e6 bc c8 af 18 ba 1a da d6 3c a9 45 5d bb
       -0.028078381 -0.00058245333 0.026227046 -0.0033763445
000110 57 56 9d bc 8f b8 5d 3c 6d ae bc bc 73 97 e1 3c
       -0.01920621 0.013532772 -0.023032391 0.027538037
000120 65 40 4f bc 49 c5 29 bd d7 d3 ed bc 37 ef 98 bc
       -0.01264963 -0.04144791 -0.029031677 -0.018668754
000130 86 47 0e 3d 75 4a 01 bd 71 f8 3d 3c ae 97 d2 bc
       0.03473618 -0.03156515 0.011594878 -0.025707092
000140 91 46 68 3c 52 61 73 3c 61 a4 5c bc f6 6a 14 bc
       0.014176981 0.014854746 -0.013466925 -0.009058705
000150 55 96 f4 3c 1e 71 7e bc 5b 17 f5 3c a7 ee b7 bc
       0.02985684 -0.015529899 0.029918363 -0.022452665
000160 1c f7 56 3c 65 5b 05 bd a8 6c fe 3c e9 c0 0d bd
       0.013120439 -0.032557864 0.03105767 -0.0346078
000170 26 4b 9c bc 55 3b f5 bc aa 69 51 bc 7f a4 22 bc
       -0.019078802 -0.029935518 -0.01278154 -0.009926914
000180 ee a4 8e bc 82 6a 3a bb 81 c1 9e 3c a0 fc da 3b
       -0.017412629 -0.0028444831 0.01937938 0.0066829473
000190 21 2e 4c bc ab 28 13 3c c4 4c 1a bd ce cd bb 3c
       -0.01246217 0.008981864 -0.037670866 0.022925284
0001a0 70 a9 28 bc f2 bf a1 bb b4 a4 02 bb 11 6c 49 3c
       -0.010294303 -0.0049362117 -0.0019934596 0.012293831
0001b0 d7 46 9f 3c c5 a1 de 3c 66 1c 2d 3c f4 18 7b bc
       0.019442959 0.027176747 0.010565853 -0.0153257735
0001c0 30 90 4e 3b 55 76 bc bc b3 f5 c2 bb c1 65 05 bd
       0.0031519048 -0.023005644 -0.0059497 -0.032567743
0001d0 a1 37 53 bc 35 4b e0 3c 81 80 d8 3c d4 79 11 bb
       -0.012891681 0.027379612 0.026428463 -0.002219786
0001e0 a6 2f b5 3c 9d a5 fc 3c 23 c1 1d 3c ad 11 04 3d
       0.022117447 0.03084069 0.009628567 0.03224342
0001f0 00 19 f8 bc f1 9b 9a bc 39 33 05 bc 0e 53 34 3b
       -0.030285358 -0.018873187 -0.008129888 0.0027515325
000200 d7 df 92 bc 7e 42 ae 39 83 16 14 bc 3c 5e b1 bb
       -0.017929 0.00033237407 -0.00903857 -0.005412845
000210 55 bd f0 bb 92 bc ed bc 46 22 7f bc c3 18 e3 3b
       -0.007346789 -0.029020581 -0.015572136 0.006930442
000220 c0 55 1c 3d 94 a7 56 bc f6 17 51 bb a9 0d 27 bc
       0.038167715 -0.013101477 -0.003190515 -0.010196128
000230 a7 00 cb 3b 2f 33 1a 3d 85 b7 6f bb ec 14 e4 3c
       0.006195146 0.03764647 -0.0036577892 0.027842008
000240 31 36 0c bd 96 24 1d bc 19 8d 6e bb 4f 0f ba 3c
       -0.03423137 -0.009591242 -0.0036400019 0.022712378
000250 bb ea ee bc a4 29 ac bc 49 2c e3 3c 6e 6f 51 3c
       -0.029164663 -0.02101595 0.027731078 0.012782915
000260 bd 5c 5c bc 6e 63 90 bc 40 fb 23 bd 51 5d 01 bd
       -0.013449845 -0.017625537 -0.040034533 -0.031583134
000270 87 18 80 3c 37 b7 bc 3c b7 cf dd 3b 73 1f 15 3d
       0.015636696 0.023036582 0.0067691463 0.036406945
000280 a2 a5 3d bb 10 ad 63 3c e2 5f 77 bc 72 c2 61 3c
       -0.0028937836 0.013896242 -0.015098544 0.0137792695
000290 48 a4 96 bc 0b 14 5e 3c 16 da 44 bc 24 5a 8c bc
       -0.018388882 0.013554583 -0.012014886 -0.017132826
0002a0 db 2e 01 bd c3 a5 85 bb 77 da b5 3b ae a3 ca 3c
       -0.031538825 -0.004078598 0.0055497247 0.024736252
0002b0 60 3f 1a 3d dc e8 cd bc ad a4 4a bc 64 30 30 3c
       0.037658095 -0.02513545 -0.012368363 0.010753725
0002c0 49 94 47 3c 3f 76 0c 3d 71 5e 12 bd 9e 5f 6e bc
       0.01218135 0.034292456 -0.035734598 -0.014549164
0002d0 d2 76 fe 3c 4f 2d ca 3c 08 fb c2 3c 93 a0 01 bd
       0.031062517 0.024679808 0.023801342 -0.031647276
0002e0 21 f9 00 3d 42 0e 75 bb 7e da 7b bb 40 22 9d bc
       0.031487588 -0.0037392532 -0.0038429792 -0.01918137
0002f0 e5 c6 21 bd d0 a6 be bc 6a 47 53 3c 85 64 ae bc
       -0.03949632 -0.023272902 0.012895444 -0.021288166
000300 3d 58 39 bc d8 36 ed ba ae 5e 67 3c 24 96 b9 3c
       -0.011312542 -0.001809801 0.0141216945 0.0226546
000310 62 1b d4 3b 21 c2 2a bc 1a db f9 bc 33 1f 09 3c
       0.006472991 -0.0104222605 -0.030499984 0.008369255
000320 88 f4 b4 bc 9f ac 1a 3d 6e 8f 18 3d 9e 94 de bb
       -0.022089258 0.03776228 0.03724616 -0.006792619
000330 30 1d a3 bc 84 cb ec 3c 72 23 73 3b 90 86 13 3d
       -0.019911379 0.028905638 0.0037099984 0.036017
000340 99 2a 11 bd 92 67 a6 3c a4 54 16 3c 06 89 3a bb
       -0.035441015 0.020313058 0.009175453 -0.002846302
000350 eb 66 02 3d 4f 55 2e bb 9f ea 71 bc 79 81 17 bc
       0.03183643 -0.002660114 -0.014765411 -0.009247177
000360 3a ff 9d 3b f1 77 c9 3b 5b 39 ee bc f7 fc e5 3c
       0.004821685 0.0061483313 -0.029080084 0.028074725
000370 e3 31 df bc 1f 51 f4 3b 96 21 f0 bc 93 3e ef 3c
       -0.027245468 0.0074559595 -0.02931289 0.029204642
000380 46 8a 85 bc 67 0a 84 bb ce b2 07 3d 4a a7 d9 39
       -0.016301285 -0.0040295604 0.033129506 0.00041514105
000390 92 64 0f 3c a9 09 d2 bc b2 88 c0 bc c1 dd 03 3d
       0.008752005 -0.025639372 -0.023502681 0.032193903
0003a0 44 f1 07 3d 35 3e 0e bd 60 09 0e bd cf c7 2b bc
       0.033189073 -0.034727294 -0.03467691 -0.01048465
0003b0 ae 5d 4d bc 3a 1c 6e 3c 7e 8d 19 3c ac 0b 9a 3c
       -0.012534542 0.014533097 0.009372113 0.018804394
0003c0 1c 9d 56 3c 86 cc 97 bc f4 8e 58 3b 71 b4 f0 bb
       0.013098981 -0.018530142 0.003304419 -0.007345729
0003d0 d9 ac ba 3a b0 05 c2 3c 4a cc bb bc 88 af 02 bc
       0.0014242186 0.023684353 -0.022924561 -0.00797642
0003e0 8f c6 11 3d 80 fe b4 3c 90 12 17 3d 49 d6 eb bb
       0.03558975 0.022094011 0.036882937 -0.0071971756
0003f0 b1 f0 08 3d 16 f0 f9 3c 11 8c bf bb 66 39 3a bb
       0.033432666 0.03050999 -0.0058455546 -0.002841556

motif_fc.bias f4 [16]
000000 bd d7 ff bb f2 3f 85 bc 9e c3 28 bc 90 38 ca bc
       -0.0078077004 -0.016265843 -0.010300545 -0.024685174
000010 a6 45 90 3c 9c 2a bd bc bb 9a 04 bc 92 e8 db 3c
       0.017611336 -0.023091607 -0.008093531 0.026844297
000020 84 6c a5 3c e0 3d bd 3a 94 2c 22 3d 7e b0 dc bc
       0.020193346 0.0014437996 0.039593294 -0.026939627
000030 24 7b 84 bc 2c 89 f0 bc c9 40 b2 bc 44 48 19 3d
       -0.016172 -0.029362284 -0.021759408 0.037422433

transformer.self_attn.in_proj_weight f4 [192, 64]
000000 1e 1b 1a 3e 4e 1e 0f be 53 2b e0 bd 4e b5 a2 3d
       0.15049407 -0.13976404 -0.109457634 0.079447374
000010 64 b2 1b 3e ce d6 b0 3d d6 20 68 3c e5 0f e7 3d
       0.1520477 0.08634721 0.014167985 0.112823285
000020 fd de 26 3d 76 7c eb 3d d0 83 ef bd 0f d3 12 3e
       0.040740002 0.114983484 -0.11695063 0.14338325
000030 7f c6 1e bd 08 5f bf bc 35 05 64 3d 39 77 8d 3d
       -0.03876352 -0.023360744 0.05566903 0.069075055
000040 e6 77 9e 3d 81 72 d5 bd 8c c2 9d 3d 06 0a 84 bd
       0.077377126 -0.104222305 0.077031225 -0.06447224
000050 97 b2 f6 bd 47 80 e9 3c e7 ca e5 bd 9f 1a d6 3d
       -0.12045782 0.02850355 -0.11220341 0.10454296
000060 f7 06 8c 3d 72 02 ca 3c 2b 09 18 bd 64 cf 3b bd
       0.06837266 0.02465937 -0.03711812 -0.04585208
000070 f9 28 1f 3e bf 59 9b 3d 5d 7a 3b 3d 15 03 78 bd
       0.15542974 0.07585477 0.04577099 -0.060549814
000080 ae 7e a4 3d 7d 9c 14 3e 20 56 11 3e 00 cf d2 3d
       0.08031975 0.1451282 0.1419301 0.10293388
000090 80 d0 d9 3d b3 7a 17 3e 00 b7 7a 3d 6d 96 29 bd
       0.10635471 0.147929 0.06120968 -0.041403223
0000a0 7d e7 cb bd 95 e5 16 3c 3f 2d ee bd 52 da f1 3d
       -0.09956262 0.00921001 -0.11629724 0.118092194
0000b0 2e 79 8d bd ef 18 d8 bd fd 84 0c 3e da e7 96 bd
       -0.06907879 -0.10551631 0.13722606 -0.07368441
0000c0 03 f6 bd 3d b9 a6 ea bc cc 99 85 3b ff f1 03 be
       0.09275439 -0.028643953 0.004077172 -0.12885283
0000d0 76 51 96 bd 4d 62 d8 3d 00 43 c8 bd d7 d3 9f 3d
       -0.07339756 0.105656244 -0.09778404 0.07804077
0000e0 b6 2f 3e 3d bc b5 12 3d 9d fd de 3d b7 f2 12 3e
       0.04643222 0.035817847 0.10888217 0.14350401
0000f0 cf 76 1b bd a6 90 49 3d c9 9c 65 bc 16 15 bd bd
       -0.0379551 0.049210213 -0.014014431 -0.092325374
000100 16 7b 75 3d f7 bb 9c bd 8f 22 63 3d 8a 73 9a bd
       0.059931837 -0.07653039 0.05545288 -0.075415686
000110 e0 27 47 3d 44 6c d3 3d de 1f 69 bd 0d 32 cb bc
       0.048622012 0.103233844 -0.056915157 -0.02480414
000120 2f ad 9c bb 9c 26 c1 bb fb 6b 4e 3d 77 59 79 bd
       -0.0047813873 -0.005894495 0.050395947 -0.060876336
000130 63 43 56 bd cc 5f 97 3c 66 4a 91 bd 10 a7 05 3e
       -0.05231036 0.018478297 -0.070942685 0.1305201
000140 c8 be eb 3d 83 1b 13 3e 1f b2 14 bd 68 c7 da 3d
       0.11510998 0.14365964 -0.036302682 0.10682565
000150 d2 a1 b9 bd d6 7a 96 bd fb 8c 05 be b1 96 52 bb
       -0.09064068 -0.07347648 -0.13042061 -0.0032133276
000160 3c 7b b6 3d b8 56 34 3c f1 06 37 3d a8 50 a9 3c
       0.08910224 0.0110070035 0.044684354 0.020668343
000170 b6 03 0a bd 36 55 cf bc 58 e2 11 be 81 6a b5 bd
       -0.033694945 -0.025309186 -0.142465 -0.08858205
000180 94 f6 1c 3e 1d 98 0f 3d 13 29 a6 bd 55 35 93 bd
       0.15328437 0.035057176 -0.08113303 -0.07187907
000190 16 c0 93 bd 45 15 09 3e 56 10 2d 3d fd 93 3d 3d
       -0.07214372 0.1338702 0.042251907 0.04628371
0001a0 e0 58 ea 3d 08 4e 12 3e 81 70 09 3e 61 b2 90 3d
       0.11442733 0.14287579 0.13421823 0.07065273
0001b0 20 23 c2 3d dc b8 b4 3d 87 c8 05 3e 49 91 01 be
       0.09479356 0.08824322 0.13064776 -0.12653078
0001c0 75 13 f0 3d f8 cd ab bd e7 11 94 bd a7 39 13 bd
       0.11722461 -0.08388895 -0.07229977 -0.035943653
0001d0 92 6a 37 39 8f d5 97 3d 04 c8 f8 3d e2 ed b8 bd
       0.0001749194 0.0741378 0.12147525 -0.090297475
0001e0 ad 8e a9 bd 47 57 e1 3d 15 7e b2 bd 87 45 12 be
       -0.08279166 0.11002975 -0.087154545 -0.14284335
0001f0 79 68 bf 3d 73 ae 11 bd 96 34 ca 3d 02 9c 0f 3d
       0.093460985 -0.03556676 0.09873311 0.03506089
000200 5b 52 92 bc d7 f8 1d be ea 75 d9 bd f1 a4 98 bd
       -0.017861536 -0.15426956 -0.106181934 -0.07453335
000210 0a 8c a7 3d e0 a6 08 be cf c1 49 bd 6c 2b a9 bd
       0.08181007 -0.13344908 -0.049257096 -0.08260235
000220 10 9c b9 bd f0 7a 5b 3d 9d e8 e4 3d fe 65 00 3e
       -0.0906297 0.05358404 0.1117718 0.12538907
000230 d1 0a 92 3d fb 94 0a bd d5 a7 2e bd 1a 5f 49 bc
       0.07130969 -0.033833485 -0.042640526 -0.01229074
000240 b0 9c dd bd 85 59 85 3d 24 4f 48 3c 91 06 45 bd
       -0.108209014 0.06511215 0.0122259 -0.048101965
000250 87 2a d2 3d e7 67 83 bd db 5a 63 bd 29 0b f5 3d
       0.10262018 -0.06416302 -0.05550657 0.11965019
000260 0d d3 70 3d 9f 83 5f 3d ee 21 a5 3d 37 a0 13 be
       0.058795024 0.054568883 0.08063112 -0.14416586
000270 bd c0 32 3d df 62 86 bd 81 0c bd 3c a2 71 9f bc
       0.04364084 -0.06561827 0.023077251 -0.019463364
000280 ee a8 d1 bd e6 85 11 bd dc bf 17 be ed 90 a8 3c
       -0.10237299 -0.035528086 -0.14819282 0.020576918
000290 f4 3e 02 be bd cb 81 bb 46 57 26 3d 1b 5e 28 3c
       -0.12719327 -0.003961055 0.040610574 0.010276343
0002a0 e4 38 40 3d db 3c 9a bd 91 af 55 bd 24 b3 0c be
       0.046929255 -0.075311385 -0.052169386 -0.13740212
0002b0 6a c2 a2 bc 7d 54 ea bc 68 2f cd 3d 97 2b c3 3c
       -0.019868094 -0.02860474 0.10018808 0.023824496
0002c0 6b a3 4d bc 01 b7 4a 3c bc 68 0c 3e 05 df 67 3d
       -0.012551169 0.012372733 0.13711828 0.056609172
0002d0 e4 0d 74 3d 6a d1 aa bc 44 82 90 3d 61 5a eb 3d
       0.05958356 -0.02085181 0.07056096 0.11491848
0002e0 76 e7 16 3d bd 9c dc 3d 8b 9b a0 bd 59 58 e6 3d
       0.036841832 0.10772083 -0.078421675 0.1124732
0002f0 6c 38 a3 bd 8b d1 eb bd db 4d d9 3d d2 6f fd 3c
       -0.07969746 -0.115145765 0.10610553 0.03093711
000300 dc 83 cb 3d 12 cb da bd 62 b4 40 bd 0e 83 54 bd
       0.099372596 -0.10683264 -0.047047026 -0.051882796
000310 74 61 14 be 32 ef a1 bd 7d d3 54 bd 46 c0 cb bd
       -0.144903 -0.07906951 -0.051959503 -0.099487826
000320 54 d7 15 3e 8c ae 2f 3c d8 73 f6 bd 4f a5 b8 bc
       0.14632922 0.010722768 -0.12033814 -0.022539763
000330 c5 03 66 3d 68 f7 f6 bc 42 45 d7 bd 00 38 bf bd
       0.05615594 -0.03014727 -0.10511257 -0.09336853
000340 db 64 0f be 3c 8e 1b be c0 db 52 3d 39 b8 54 3d
       -0.14003317 -0.15190977 0.0514791 0.0519335
000350 7a 9e cb bd cb ea 3c bd be 18 80 3b 9f 74 10 bd
       -0.099423364 -0.046122354 0.0039091995 -0.03526747
000360 16 51 4e bc 31 a4 0a 3e c5 1f 3e 3d 66 3a 0a 3e
       -0.012592575 0.13539197 0.046417017 0.1349884
000370 0a 05 a2 3d b0 04 3b bd 85 53 16 3e 89 42 01 3e
       0.079111174 -0.045658767 0.14680298 0.12623037
000380 1b ae bf bc 82 17 71 3d a7 b8 07 bd 6d c3 94 3d
       -0.02339845 0.05886031 -0.033135083 0.07263837
000390 9d 11 9c bd f3 ad 20 bd 49 81 1a 3e 63 bd ae bc
       -0.07620547 -0.03922839 0.15088381 -0.021330541
0003a0 86 cd 9d 3d 09 e0 11 be 2c 1e e8 3d 1d a1 9e 3d
       0.07705216 -0.14245619 0.1133388 0.07745574
0003b0 47 58 ac bd 73 4c 7c bd f9 66 82 3d dc 15 9a 3d
       -0.08415275 -0.061596345 0.06367297 0.075237006
0003c0 ee fd ad bd db 88 44 bd bb c2 0b 3e 85 7a 00 be
       -0.08495699 -0.047982078 0.13648503 -0.12546737
0003d0 17 d9 fa bb e5 41 e9 3d 34 60 ca 3d e4 03 66 3d
       -0.0076552737 0.113895215 0.098816305 0.056156054
0003e0 46 dd d8 3d ea ce 0c 3e 86 09 94 bd a2 84 9b 3d
       0.105890796 0.13750806 -0.07228379 0.07593657
0003f0 45 48 95 bd 74 a5 a1 bd b9 9a e5 bd 64 24 46 3d
       -0.07289175 -0.07892886 -0.11211152 0.04837455

transformer.self_attn.in_proj_bias f4 [192]
000000 2b 7e 61 bb 7e 15 67 bb 7f 07 42 bb 41 ca dd 3a
       -0.0034407477 -0.0035260613 -0.0029606519 0.0016921238
000010 b1 3e 4d bb 2f 27 27 bb 70 30 3e bb da 24 b4 3a
       -0.0031317885 -0.0025505533 -0.002902057 0.0013743893
000020 d7 2c 06 bb 9d b1 bb 3a a5 c2 71 3b 38 2d ab ba
       -0.0020473504 0.0014319901 0.0036889699 -0.0013059741
000030 1d d9 0c bb c8 fd 5b bb 47 56 71 3b 6e ab 74 3a
       -0.0021491714 -0.0033568013 0.0036825107 0.00093334063
000040 d0 20 48 bb 9c 62 7d bb 19 21 03 3b ac df 47 bb
       -0.0030537136 -0.0038663512 0.0020008741 -0.003049831
000050 fc 7f 6a bb d8 c2 80 bb d1 60 5f 3b b1 9e 77 3b
       -0.003578185 -0.003929477 0.0034084807 0.0037783796
000060 0f 55 87 bb 34 ae 86 3b ef 1f 8e 3b 4b 56 0f ba
       -0.004130013 0.004110122 0.004337303 -0.0005467876
000070 ae 51 24 bb ff d7 7d bb 58 fa f9 ba b0 df 33 3b
       -0.00250731 -0.003873348 -0.0019071801 0.002744656
000080 bd 78 74 bb d4 5f ce b8 02 d3 7b 3a 47 f4 0b 3b
       -0.003730341 -9.840695e-05 0.0009606333 0.0021355317
000090 47 61 70 3b 93 27 90 3b ff 03 39 bb b0 c0 6f 3b
       0.0036679076 0.004399249 -0.0028231142 0.0036583357
0000a0 84 c4 32 ba c4 89 91 bb cc 1d 68 3b fb 17 0d 3b
       -0.0006819444 -0.004441472 0.003541815 0.0021529186
0000b0 76 45 fb 3a b7 8f 4d 3b cc e5 97 bb 43 6e 6f 3b
       0.0019170481 0.0031366178 -0.004635548 0.0036534227
0000c0 27 c2 4a 3b 08 5c 4e 3b 7e 76 4d ba ad ca 53 bb
       0.0030938478 0.003148796 -0.0007837786 -0.003231685
0000d0 46 7e 94 bb 14 4b 7b ba d6 a6 fa ba ee a3 55 3a
       -0.0045316545 -0.00095860776 -0.0019123207 0.00081497326
0000e0 5f 5c 69 bb e7 1e 27 3b 36 b4 7f bb c7 54 88 3b
       -0.0035608036 0.0025500597 -0.0039017326 0.004160497
0000f0 15 99 68 bb c4 e9 7f bb 37 f0 75 3b 39 84 10 bb
       -0.0035491635 -0.0039049247 0.0037527212 -0.0022051467
000100 fc 74 49 bb d0 01 18 3b a4 d5 0c 3b a3 87 22 bb
       -0.0030739894 0.002319444 0.0021489644 -0.0024800084
000110 09 22 55 3a f1 45 2f 39 56 f2 03 3b 60 41 88 3a
       0.0008130377 0.00016715356 0.0020133457 0.001039546
000120 ca 64 2d 3b 55 34 19 bb 11 b8 92 3a 9a 5e 03 ba
       0.002645778 -0.002337714 0.0011193772 -0.000501135
000130 71 0a b5 3a ba f5 39 3a e2 ae 44 ba 06 81 c8 ba
       0.0013812316 0.0007093806 -0.0007502866 -0.0015297241
000140 15 99 5e bb 60 c3 cc 39 44 2f 42 b9 d2 2e 4f bb
       -0.0033965756 0.00039055478 -0.0001851889 -0.00316136
000150 29 e9 48 bb 5d 6f 08 bb c1 70 9b ba 7d 2a b1 3a
       -0.0030656552 -0.002081833 -0.0011859165 0.0013516691
000160 3c cb 48 3b 31 9c 44 bb 6b 7e 16 bb 39 b6 4c 3b
       0.0030638715 -0.0030000324 -0.0022963535 0.0031236543
000170 24 55 d9 ba dc bd 49 3a f3 72 4b bb bd 37 4d 3b
       -0.001658116 0.0007695833 -0.0031043857 0.003131374
000180 33 74 14 bb 62 2c f4 3a c7 11 15 bb 84 08 2f bb
       -0.0022652268 0.001862895 -0.0022746192 -0.0026707957
000190 9c f9 9a ba d8 fd 0f 3b 55 27 33 3b 86 42 31 bb
       -0.0011823657 0.002197137 0.0027336676 -0.0027047708
0001a0 9d 94 05 bb a7 40 91 ba d7 49 21 3b 39 75 83 ba
       -0.002038277 -0.001108189 0.0024610662 -0.0010029442
0001b0 ed 8c 0d 3b 19 e4 c6 ba bc a3 17 bb d0 11 7f 3a
       0.002159889 -0.001517418 -0.0023138365 0.00097301323
0001c0 8d 8a 26 3b ad 97 2f 3b 95 f2 30 bb b8 b5 1c bb
       0.0025412173 0.0026793287 -0.002700006 -0.0023912024
0001d0 47 9b 14 3b 3c c7 02 3b fd 14 24 bb 0e ae 0d 3b
       0.002267556 0.0019955179 -0.0025036924 0.0021618637
0001e0 7e 40 1d bb 3f 56 3b bb ea fe 20 bb 73 d5 02 bb
       -0.002399474 -0.0028585342 -0.0024566003 -0.0019963651
0001f0 86 77 36 3b af b5 31 3b b0 1f 2f 3b bc 63 fa 3a
       0.0027842238 0.0027116349 0.0026721768 0.001910321
000200 97 5c 64 bb 8c 60 0d 3b 6b 01 61 bb 63 a0 98 bb
       -0.0034845227 0.002157244 -0.003433312 -0.0046577915
000210 22 a7 92 3b 4a 40 15 ba 77 a3 21 bb 1c 32 28 3a
       0.00447549 -0.0005693479 -0.0024664083 0.0006416158
000220 a4 90 71 bb b8 60 6e 3b 05 c0 de 3a 19 cd f4 3a
       -0.0036859894 0.0036373567 0.0016994482 0.0018676847
000230 03 07 27 3a 4a a6 83 3b 4a c9 70 3b 71 e6 5d bb
       0.0006371589 0.004017626 0.0036741071 -0.0033859278
000240 21 8c 2c 3b d9 7a 86 3b 3e cb 88 3b a1 dc 8c bb
       0.002632864 0.004104 0.004174619 -0.004298762
000250 9e a3 7f 3b 76 b4 69 3b c4 78 7d 3b 44 06 e0 ba
       0.0039007436 0.0035660542 0.0038676718 -0.0017091711
000260 08 bf 38 3b c6 d0 15 3a ca fa 26 3b b8 ca 67 3b
       0.0028190035 0.00057150086 0.0025479072 0.0035368633
000270 95 30 6a bb e0 db 87 3b 54 70 65 3b 8b 6d 8b 3b
       -0.0035734524 0.004146084 0.003500958 0.004255002
000280 83 6e 79 bb f3 cb 23 bb f8 2b 11 bb 9c 9c 4b 3b
       -0.0038060255 -0.002499339 -0.0022151452 0.0031068688
000290 55 76 0e 3b f9 8d 06 bb ef ed 87 3b 2c 45 3e 3b
       0.0021738012 -0.00205314 0.004148237 0.002903293
0002a0 cd 88 7d bb 3a 5d 93 bb 90 da 15 3b d4 3e 63 3b
       -0.0038686276 -0.0044971975 0.002286587 0.00346749
0002b0 e0 27 ae 3a 51 65 41 ba 19 fc 7f 3b 04 c4 b7 ba
       0.001328703 -0.0007377463 0.0039060174 -0.0014020209
0002c0 4a 15 96 3b d6 62 58 3a 0b 67 83 3b 5d 3e b0 3a
       0.0045801746 0.0008254474 0.0040100864 0.001344632
0002d0 63 f5 86 bb a0 52 59 3a 49 45 92 3b 6a f1 f3 ba
       -0.004118608 0.0008290205 0.004463826 -0.0018611376
0002e0 01 26 08 bb de bb 71 bb 7e a3 92 bb 92 73 4a bb
       -0.0020774605 -0.003688566 -0.004475056 -0.003089164
0002f0 4e 50 3b bb f2 74 b9 ba 7c 01 2e bb 36 46 64 3b
       -0.00285818 -0.0014149232 -0.0026551178 0.0034831888

transformer.self_attn.out_proj.weight f4 [64, 64]
000000 f9 8f db bd f9 6a a4 bd 0d 92 82 3c 85 1d 8b bd
       -0.1072082 -0.08028216 0.015938783 -0.0679274
000010 e3 d0 92 bd 3a b7 00 bd d3 af 6b 3c ce 11 e1 bd
       -0.07168748 -0.03142474 0.0143851815 -0.10989724
000020 ce 3f f7 3c 86 ee ea bd 97 7d fe bd 5a 15 ce 3c
       0.030181792 -0.11471276 -0.12426298 0.025156666
000030 f8 fb a5 3d 9d d5 e6 3d 71 e1 f6 3d 9b 69 7d bc
       0.081047 0.11271212 0.12054718 -0.015467073
000040 3a 2d 57 3a 00 15 cf 3d 91 d4 86 3c 9d 73 44 bd
       0.00082083384 0.10111427 0.016458781 -0.04796182
000050 3e 54 e8 3d b6 47 eb bd 07 3d db 3d a9 63 01 bd
       0.11344193 -0.11488287 0.107049994 -0.031589184
000060 a2 c5 be bd 96 b1 ad bd 10 e1 6a bd e4 52 a7 bd
       -0.09315039 -0.084811375 -0.057343543 -0.08170107
000070 21 c4 54 3d 6e 20 f3 bc d8 55 97 3d 32 b4 35 3d
       0.051944856 -0.02967855 0.0738942 0.0443613
000080 32 ca 8b bd 70 23 12 3d e2 95 0c 3d 4d 63 dc bd
       -0.06825675 0.035678327 0.034322627 -0.107611276
000090 b9 ce ad 3d a6 d4 eb 3d d9 44 fa 3d 5f 81 15 3d
       0.08486695 0.11515169 0.12220163 0.03650033
0000a0 17 f7 c4 3c fd cf bb 3d 32 f8 94 bd 40 38 92 bd
       0.024043603 0.0917053 -0.07273902 -0.07139635
0000b0 b4 54 e9 3d a1 08 24 3d 8e 58 ee 3d 87 85 47 3d
       0.11393109 0.04004729 0.11637984 0.048711326
0000c0 47 70 d2 bd 9e e3 c3 bd 9b 76 cc bc ae 97 6d bd
       -0.102753215 -0.09564899 -0.0249589 -0.05800598
0000d0 58 6b e1 3c e0 75 38 bc 2c 19 37 bc ab 48 8b bd
       0.027517006 -0.011258572 -0.011175435 -0.0680097
0000e0 16 0e 0a 3d 43 2e d0 bb c0 ac 8a bd d7 50 c5 3b
       0.03370484 -0.006353171 -0.06771231 0.0060215998
0000f0 de 44 51 bd 90 2a fc 3d ee 28 d6 3d 44 b8 a3 3d
       -0.051091067 0.12312806 0.104570255 0.0799413
000100 ce 48 31 bd 89 77 8e 3c ae 25 70 bd 59 d7 10 bd
       -0.043282323 0.017390983 -0.058629684 -0.03536162
000110 31 3b fb 3b bb 8f e1 bb 43 60 e7 bd 2f 79 71 3d
       0.0076669683 -0.006883589 -0.11297657 0.05895346
000120 79 b3 ef 3c db 9d ae bd 7c 35 48 3d d8 78 39 3d
       0.029260384 -0.08526202 0.04887913 0.04528126
000130 14 2d 10 bd ef cd fd bd 2f ca 1b bd 97 cf 6d bd
       -0.03519924 -0.12392794 -0.038034614 -0.0580593
000140 61 64 10 3d 53 ad 1b 3d b7 72 02 be ae b1 f9 3d
       0.03525198 0.03800709 -0.12739073 0.12192093
000150 eb ff 14 bd 0c 1d 6b 3d 53 8f 30 3d ee fc a9 3a
       -0.036376875 0.057400748 0.043105435 0.0012969056
000160 4d b3 e1 3c 3d 3b c0 bd c2 a0 53 3d 26 9f c8 ba
       0.027551318 -0.09386299 0.051666982 -0.0015306219
000170 a2 34 d2 bd 8e 2e d4 bc c0 c0 94 bd 0b 04 ad bd
       -0.10263945 -0.025901105 -0.07263327 -0.08448037
000180 81 dc b2 3d 7c 43 19 3d 47 06 c2 bc 26 11 82 3d
       0.08733464 0.037417874 -0.023684634 0.06350927
000190 cf e8 33 bc 0c f7 bc bd e0 20 46 bd 83 d8 e1 bc
       -0.010980799 -0.09226808 -0.048371196 -0.027569061
0001a0 b6 8b 8f 3d e7 a7 88 bd 17 9d cb bb 38 5f 86 bd
       0.070090696 -0.0667265 -0.006213795 -0.0656113
0001b0 54 bc f0 3d fa 3d 7f bd f8 51 ca bd c9 cd a3 bc
       0.11754671 -0.062314965 -0.098789155 -0.019995587
0001c0 19 21 43 bd af 39 96 bd a0 48 41 3d ab 07 ed 3c
       -0.047638986 -0.07335221 0.0471884 0.02893432
0001d0 48 53 d8 3d 67 d0 f8 3d 6c 37 ba 3b da 32 7b bd
       0.1056276 0.121491246 0.0056828763 -0.061327793
0001e0 3e 01 d2 3d a2 cc e7 bc 1a de 97 bc 8f 7b c7 bd
       0.10254143 -0.028295819 -0.018538523 -0.09740364
0001f0 68 21 7e 3d 77 2b 05 3d de 4a 92 bd 0e cb 7c bd
       0.062043577 0.032512154 -0.07143186 -0.061717086
000200 5e 03 b5 3d 1a ba a4 3d 25 b4 74 bd 9b 4e 65 3d
       0.08838533 0.080433086 -0.05974211 0.055983167
000210 54 4d fb 3d 91 45 3d bc 75 58 f3 bd 93 26 75 bd
       0.122706085 -0.01155223 -0.11882106 -0.05985124
000220 4c 93 51 bd cf 73 f6 bd 02 6b cf bd 25 aa f9 3d
       -0.051165864 -0.120338075 -0.10127832 0.121906556
000230 b3 8c d8 3c 4f 2b 83 bd c2 af 10 3d 46 73 85 3d
       0.026434278 -0.06404745 0.035323866 0.06516127
000240 ae 8b 85 bd b4 af 67 3c bf 4e c8 3d 93 2f 4f 3d
       -0.065207824 0.014141012 0.097806446 0.05058248
000250 c5 cd e2 3d a0 52 4c 3d 7f 6a 18 3d 65 22 29 bd
       0.11074404 0.049883485 0.037210938 -0.041292567
000260 68 04 ee 3c cf 5b ea bd ca ce 18 bd be 3e 3b 3c
       0.029054835 -0.11443292 -0.037306584 0.011428533
000270 85 76 9e 3d 69 3c c9 3d 8d 5f e9 bd 89 21 0e bd
       0.077374496 0.098259754 -0.11395178 -0.03469995
000280 b8 b0 86 3d 4c 7e 9e bb 08 6a 45 bd 2f a4 27 bc
       0.06576675 -0.004836833 -0.048196822 -0.0102320155
000290 fa 8b 7c bd 4a 4c 80 3d bb 52 9c 3d 49 ed cc bd
       -0.06165693 0.06264551 0.07632967 -0.10006196
0002a0 a6 e1 01 bc bc 43 0d 3d a6 0a 82 bc 54 79 5e 3d
       -0.007927334 0.034488425 -0.015874218 0.054314926
0002b0 66 0a 7c bc 40 18 8b bd 20 95 3a 3c 12 74 30 3d
       -0.015383339 -0.06791735 0.011388093 0.043079443
0002c0 2f c5 f3 3c 11 5d 6a bb d8 e1 1c bd ea ea dd bd
       0.02975711 -0.0035761038 -0.03830132 -0.10835822
0002d0 92 d8 a5 bd 74 c4 af 3d f6 03 c6 3c 21 a8 84 bd
       -0.08097948 0.08582392 0.02417181 -0.064773805
0002e0 1e d5 05 3d 9c 30 9a bd 0f 3e 02 3e 86 ba 32 3d
       0.032673948 -0.07528803 0.12718986 0.043634914
0002f0 0d e9 88 3c 03 5b ce bd 3f 3b f2 bd 67 4e b4 bd
       0.01671269 -0.10075953 -0.118277065 -0.088040166
000300 e2 d1 29 3d 95 32 9f 3d d5 f0 33 3d 22 fd f9 bd
       0.041459925 0.0777332 0.043930847 -0.122064844
000310 3e 65 07 3c c2 02 59 bd 6c c9 52 bd 8d 97 af bd
       0.008263884 -0.052981146 -0.051461622 -0.08573828
000320 fb 6d 9c 3c db 3e be 3d 70 73 bf bc 55 8a 51 3d
       0.019095412 0.092893325 -0.023370475 0.051157314
000330 65 98 d6 bd 6c 4b b1 bd 32 5c ec bd 3d e3 de 3d
       -0.10478286 -0.08656964 -0.11541022 0.10883186
000340 29 02 18 3c 25 ca 84 bd fa 52 8a 3b 49 3a 59 3d
       0.009277859 -0.064838685 0.0042213174 0.0530341
000350 7d 3f 09 bd 25 99 f2 bb 86 23 72 bd 6f 0f 82 bc
       -0.033507813 -0.00740351 -0.05911591 -0.0158765
000360 fb d6 5d bd 5e ef 8d 3d c0 98 ff 3d b5 bc 1b 3d
       -0.0541601 0.06930421 0.124803066 0.038021762
000370 c3 17 58 3d 1d b6 99 bd fa 55 f6 bd 8b 27 ca bd
       0.052757036 -0.075054385 -0.120281175 -0.098708235
000380 04 38 f0 bd eb 8a 1b 3d 0e 2e 8a 3d b5 29 d9 bd
       -0.11729434 0.03797428 0.067470655 -0.10603658
000390 ae ca 02 be 54 9d 85 3b fd 36 28 bd 2b 46 19 bd
       -0.12772629 0.004077593 -0.041068066 -0.037420433
0003a0 2e fd c0 bd fb a8 cb 3d ba 3b ab bc 44 f4 15 bc
       -0.0942329 0.0994434 -0.020902503 -0.009152476
0003b0 9c 1e 2c 3a f8 50 aa bd 39 5c 69 3b 1e 68 d6 3d
       0.00065658404 -0.08316225 0.0035607948 0.104690775
0003c0 f9 44 d1 bd 6d 84 5d 3d 58 5d f3 3d 86 40 73 bd
       -0.102182336 0.05408137 0.11883038 -0.059387706
0003d0 7f 23 5a 3c 1b b3 48 bd 61 7e 28 bd b1 f2 cc bc
       0.013314127 -0.048998933 -0.04113615 -0.025018068
0003e0 95 c5 84 bd bb 9c b0 bc 97 2d 15 3d 74 18 8a bd
       -0.06482998 -0.02155911 0.03642043 -0.06742945
0003f0 1a 2f 2c 3d fc d3 4d bc f7 9b 64 3d 9b 4e bb 3c
       0.042037107 -0.012562748 0.055812802 0.02286463

transformer.self_attn.out_proj.bias f4 [64]
000000 f4 4d 90 3b c6 c8 0b 3b 9f ea b6 ba 3e 2f 54 bb
       0.004403824 0.0021329387 -0.001395542 -0.0032376791
000010 0a e7 7c 3b 14 6e 35 3a 61 b6 0f 3b e9 5f 65 3b
       0.0038589858 0.0006921005 0.0021928775 0.0034999794
000020 c5 47 3f bb 10 b2 39 3b 22 bf 62 bb 4a 80 69 bb
       -0.0029187065 0.0028334893 -0.0034598787 -0.0035629445
000030 09 a3 40 bb 92 0e 51 bb 09 f1 69 3b 2a 38 86 bb
       -0.0029394052 -0.0031899554 0.0035696647 -0.0040960507
000040 53 f1 02 bb e5 ca 50 3b 69 a7 58 3b b7 33 80 bb
       -0.0019980266 0.0031859216 0.0033058769 -0.003912415
000050 6c 55 76 3b 10 f2 e6 ba ad 1d 82 3b 27 a1 5f bb
       0.0037587536 -0.0017619748 0.003970823 -0.0034123154
000060 38 81 8f 3b 27 9c 67 3b c0 ce 82 ba ad 1e 8a 3b
       0.0043794177 0.0035340877 -0.0009979829 0.0042150826
000070 fc e0 df 3a 48 79 63 bb 94 03 cc 3a 98 c3 e8 b8
       0.00170806 -0.003470974 0.0015565031 -0.00011099054
000080 2a 23 27 bb 56 e0 82 39 0a ec 5e 3a f6 e3 32 3b
       -0.0025503137 0.00024962676 0.00085038005 0.002729652
000090 18 b0 92 bb b4 94 10 ba b4 ee 99 bb ae f7 64 3b
       -0.0044765584 -0.00055153226 -0.004697645 0.0034937668
0000a0 82 3d 81 3b fc 8b 5a bb 8a b4 ca ba ea af 65 3b
       0.0039441 -0.0033347597 -0.0015465182 0.003504748
0000b0 a8 4c 99 b8 08 df 77 bb c0 3d 4e bb 5d fb 88 bb
       -7.309887e-05 -0.0037822146 -0.0031469911 -0.0041803555
0000c0 18 e5 65 3b 82 53 3b bb 12 a3 8d bb 38 c6 86 3b
       0.0035079177 -0.002858371 -0.004322418 0.004112985
0000d0 f5 fc 96 3b b3 42 65 3b 64 79 28 bb 2a 7a 47 ba
       0.0046077915 0.0034982383 -0.002570712 -0.00076094514
0000e0 85 ed 29 3a b9 d8 8e 3b 26 95 ff 3a ce 81 25 3b
       0.00064822315 0.0043593314 0.0019499406 0.0025254372
0000f0 1a bb 05 3b 6b a0 79 3b 8b 6d 4f bb 4d 99 40 bb
       0.002040571 0.0038090001 -0.0031650986 -0.002938825
